HW03/Parameter/best_model.npz (npz, 835470 bytes, 8 tensors)

w1 f8 [8, 3, 3, 3]
000000 3d 85 94 3a d6 d3 d8 3f ac 56 a4 15 82 90 d9 3f
       0.38792949410170136 0.3994450770709175
000010 42 ef e2 6c 73 de d6 3f d0 85 5c 28 2c 5c c7 bf
       0.357327324232518 -0.18250038119098955
000020 bc 4b d1 54 1c 0b de bf a4 8f 72 12 cd 66 b2 3f
       -0.46942814143147493 0.07188111973169825
000030 12 1e 03 20 8f cb dd bf 24 c8 1c c2 79 2f 90 3f
       -0.4655492603892252 0.01580610511081927
000040 15 49 a9 90 ef a7 af 3f 1b 59 78 98 1d 6d da 3f
       0.061828123482557874 0.412909888168899
000050 0a 0c fb 95 75 57 db 3f 55 00 d6 55 e8 c3 d9 3f
       0.42721309324787227 0.4025822485200526
000060 e6 cd c4 4b f1 25 d0 3f ea 12 b4 a8 26 49 c0 bf
       0.2523158302239764 -0.12723239171477668
000070 af fb cb 43 e6 cf c0 3f 0f 96 03 63 02 e3 58 3f
       0.1313445883788211 0.0015189669903120683
000080 30 80 34 45 29 67 cc bf a6 cf 28 63 05 f7 df bf
       -0.22189823035387368 -0.4994519680360504
000090 67 e3 78 e6 c8 06 e9 bf 26 f4 35 99 71 0f e3 bf
       -0.782078218594603 -0.5956352226636497
0000a0 f0 12 71 29 d2 d1 e3 bf 13 05 a4 dd 4f 25 e3 3f
       -0.6193629083068952 0.5983046845359773
0000b0 15 5b 48 9a 7b 09 e3 3f e3 f2 e5 13 0a 51 e2 3f
       0.5949075711567696 0.5723925007474374
0000c0 8f 30 f9 bd 30 01 b7 3f cd aa 6a d2 09 96 d8 3f
       0.08986191404364006 0.38415761517050556
0000d0 a7 4c 8a b5 39 8e d1 3f 3a ae ec 7f fd db c8 bf
       0.27430575111902517 -0.1942135691291343
0000e0 e6 4c 5e 19 16 7f cb bf e6 c6 b3 af e8 b6 d5 bf
       -0.2148158668393087 -0.33928887518332684
0000f0 39 7f 73 30 3f 3a d1 bf 2e f7 31 6b e4 bb c1 bf
       -0.2691801045566425 -0.13854651674403712
000100 af ad 3d 7a 13 fd 7d bf b3 c9 2d c8 4f d8 ca bf
       -0.007321430286406124 -0.20972630762441966
000110 fc 14 e9 60 8e df db bf e4 ef 97 6d e9 e9 c9 bf
       -0.43551978553689685 -0.20245092250104257
000120 f6 d9 f8 8c f6 f3 bc bf 45 00 bd 55 8c a7 da 3f
       -0.1130975813074214 0.4164763295448249
000130 7c 67 0c 9c 9d f5 cb bf 7f 04 aa 3e 73 8a c6 3f
       -0.21843309516480847 0.1761001640298083
000140 98 ef c6 cd 86 99 d4 3f ca b6 37 ae 1d 07 a3 3f
       0.32187051864070204 0.037163665310669794
000150 84 2a a1 fa 76 c0 de 3f 09 ef 91 aa 57 1a e5 3f
       0.4804971168092964 0.6594656306692467
000160 3c c2 db 16 ab f9 db 3f 97 19 94 b1 e4 ad dc 3f
       0.4371135447718506 0.4481136068501654
000170 8e 2d c2 9e ea c1 e2 3f 0a d0 de 2f 69 07 dc 3f
       0.5861714459182836 0.4379523246273044
000180 89 5b 1c 8a 31 fd d2 3f 22 d0 cf 8b 1e af 9d bf
       0.2967037056673055 -0.028988339694436267
000190 8b c7 e4 ee ee 16 be 3f 5c 02 b1 10 31 88 c0 3f
       0.11753743488659844 0.12915623965274647
0001a0 61 91 cb b1 63 29 d4 3f ea 98 d5 f1 de f6 d6 3f
       0.3150262104302524 0.35881780258786355
0001b0 21 ce 9f 7e 33 7a c1 3f 1d 14 59 77 0b 24 d9 3f
       0.13654178316902324 0.39282499938082244
0001c0 b0 b2 36 db e5 f9 bf bf b7 04 60 41 9b c6 db 3f
       -0.12490688897987456 0.43399697670254106
0001d0 14 dd c7 67 86 8c da 3f 6f 70 89 ae 33 ee d0 3f
       0.4148269666179243 0.26453868908516304
0001e0 2b 17 9b 2d de 06 c5 3f 14 e1 f9 67 99 6c ce 3f
       0.16427209116789618 0.2376891858764415
0001f0 62 88 bb be 18 73 c4 bf 31 e0 90 3f 0e d8 e0 bf
       -0.15976247132408888 -0.526373981620969
000200 a9 1d 8f ba 38 5b e0 bf ec 4f 17 64 c3 ba e6 bf
       -0.5111354488116621 -0.7102982478049831
000210 9f 2d 49 4f 3a a5 d4 bf 4e 7b 82 8d e4 95 cf bf
       -0.32258470289954205 -0.24676186475422884
000220 94 a2 d7 87 4e 41 bc bf ea d0 0e b0 ed e2 cf bf
       -0.11037150207961083 -0.24911280724121038
000230 ba f8 28 ec 08 e9 d0 3f 5a 44 4b 0c 8c a7 d3 3f
       0.2642233186960642 0.30710126114451486
000240 9b fc 18 c8 a5 da ad 3f 28 e9 a1 aa bb bd 89 bf
       0.05830877368543349 -0.012568918366231488
000250 2c fa e6 0a 83 0b c1 3f 2b cf a6 a4 70 04 d4 3f
       0.13316381485306417 0.31277099684961013
000260 85 39 52 7e b3 eb ac 3f f6 d1 2d e4 e5 48 c4 3f
       0.056485757036273156 0.15847467080642702
000270 b4 49 87 ed 92 8b c9 bf 10 a8 05 a2 5b a8 d0 bf
       -0.19957195852346177 -0.26027575323553354
000280 59 f6 63 3b fd 41 d2 bf ff e7 eb 88 dc ea a4 bf
       -0.2852776603684553 -0.0408543507709993
000290 4a f4 65 bb cf 0d a3 3f 6a ce e2 e8 a5 20 c7 bf
       0.03721474802566911 -0.1806838404787528
0002a0 de b4 21 b2 c3 be c5 bf 32 7e 21 f7 42 07 d2 3f
       -0.16988416860423333 0.2816932118784933
0002b0 19 7c 9f ad ea bd d2 3f 6f ad a0 00 b8 79 d5 3f
       0.29284159617776734 0.33555412350934594
0002c0 bd ba 19 88 ce c3 cb 3f 0f d7 8f 36 f6 4f c1 bf
       0.21691304822475913 -0.13525273956445757
0002d0 ff 3a 72 20 52 37 e5 bf 7b 3e 13 b4 8e f4 de bf
       -0.6630030282702534 -0.48367660127130535
0002e0 6a 96 16 b4 6f f7 d4 bf cd 01 3e 7e da 43 bf bf
       -0.32760231577626675 -0.1221291120728047
0002f0 69 c6 7c 45 eb d2 bb bf 0f 03 2a 3f 18 92 d0 bf
       -0.10868711897344387 -0.2589169136845592
000300 c4 a9 05 a9 2a b7 d8 3f 66 6c 3b b4 31 7e 81 3f
       0.3861796045881898 0.008541477501628768
000310 c4 29 1a 3f 61 ce b4 bf b7 6a 34 29 c4 73 c7 bf
       -0.081274106889544 -0.18322040569258544
000320 6a c9 e5 6a 5b 55 ce 3f 33 41 91 14 ca e6 d4 bf
       0.23697989196405028 -0.32658626564536347
000330 b8 83 2a 74 a9 d2 da 3f db bd dc 81 73 61 b8 bf
       0.41910778374045377 -0.09523698730912804
000340 37 7c 7f 39 ac 4a 88 bf 05 46 78 71 31 dd b1 3f
       -0.011861176972102523 0.06978138942965735
000350 6c 33 ff db de 8a d3 3f 26 97 3a 3f a5 8a d1 3f
       0.30535098537511973 0.2740872495145247
000360 e8 18 96 23 ca 04 c1 bf 27 f8 6f 46 60 ef d0 3f
       -0.1329586671601597 0.2646103561272661
000370 cd 38 85 db f5 f9 d3 bf a9 9d 6b e2 5c 59 ca 3f
       -0.3121313709024321 0.2058521371429667
000380 f5 91 cf df 74 4e d3 bf b4 12 07 17 e2 2c d5 bf
       -0.3016636071827457 -0.3308644509200278
000390 6e c9 52 c3 48 a8 c6 3f 6a 72 d7 f9 bb dc a9 3f
       0.17701062714838706 0.050512193916550555
0003a0 30 62 86 bb c6 6e b1 3f e1 45 06 1a 0f 48 b7 3f
       0.06809656217809201 0.0909432829414736
0003b0 bb 39 fa 2e 5b dc d2 3f 6d 0b 05 fd 14 5c 92 3f
       0.2946994742168518 0.017929389899346605
0003c0 2b 05 95 9c 47 1e b4 bf 7e 58 e8 20 bb da 9d bf
       -0.07858703205876753 -0.02915470493652394
0003d0 fd 2e b6 37 33 9f c7 3f fe 87 69 d2 a1 60 b2 bf
       0.18454590053840284 -0.07178698908822409
0003e0 12 f6 0c 9b de 5b ce bf fa 1b dd 1f 28 23 d3 3f
       -0.2371786362727311 0.29902079688730476
0003f0 7f 5d b5 f6 1e e6 d3 bf 3f 07 a5 a2 a0 fb c5 bf
       -0.3109204682600292 -0.1717415613330164
000400 5a 2e b4 03 f7 2b bb bf f1 fa 0f 4f 5b 5b d2 bf
       -0.10613960113931267 -0.2868259689420674
000410 00 d0 14 db 06 f7 c3 3f ef c7 d8 d6 02 50 c2 3f
       0.15597615907029194 0.1430667447144169
000420 c5 2e 54 93 7b d4 b0 bf b6 fd 6c 37 00 7f d7 3f
       -0.0657422289552257 0.36712651646299876
000430 20 91 9c ba 3a b0 cd bf 08 2f 67 52 e7 c8 d2 3f
       -0.2319405947865869 0.29351218268560375
000440 f5 ae 89 6d 8f 5c b2 3f 0e 65 ff 25 76 0c ac 3f
       0.07172485756171539 0.05478257383192374
000450 cc ab 92 81 ef 41 d3 bf c8 2d 9a 67 0f 76 d0 bf
       -0.3008993878708537 -0.25720582120331104
000460 67 57 1a 06 e7 42 ad 3f af 20 aa 57 3a 66 a0 bf
       0.05715105008600468 -0.03202993698238409
000470 a5 7a 54 a3 50 ef a9 3f 30 ee 64 3b 7b 36 d1 3f
       0.05065395349287386 0.2689502792379441
000480 b5 41 85 af ff 72 d3 bf 47 1c bf b9 26 3d c0 3f
       -0.3038939680164064 0.12686618871359398
000490 3a 04 87 c0 0c 26 d0 bf be a6 bc de aa 6f d3 bf
       -0.25232237626557075 -0.3036906409421184
0004a0 43 96 ea 98 60 22 b0 bf 7d 21 d1 38 00 88 d0 bf
       -0.06302455647763687 -0.25830083416487765
0004b0 c3 43 21 d2 e5 eb d1 3f 66 33 5e bb 22 e2 b0 bf
       0.2800230552721212 -0.06595055651105283
0004c0 8a 08 6a 15 32 9d b9 bf da 20 b6 4a b1 35 b8 3f
       -0.10005486510093156 0.09456928323755012
0004d0 62 b5 e9 4b 47 7d c7 3f 59 d1 e9 48 a9 f1 d3 bf
       0.183510696474893 -0.3116248333019676
0004e0 a0 ce 12 5b a5 86 c0 3f 87 fd 07 54 dd 69 d2 bf
       0.129109067410913 -0.2877114601723964
0004f0 25 5d 24 d0 ea af d3 bf bf 9c 6b 59 0d a8 b3 3f
       -0.3076121361386462 0.07678302224268217
000500 68 d0 e7 d3 0b b4 c0 3f 21 4c b5 aa c8 44 ce bf
       0.13049457404088405 -0.236474116662607
000510 6a 88 2a 71 63 37 d2 3f 3c 84 cf 72 d4 a1 d2 3f
       0.28463064242726566 0.2911273118207338
000520 8d 71 51 7e a1 4e cf bf f8 20 8d 3c 42 70 d5 bf
       -0.24458712261083485 -0.3349767295189987
000530 f4 ff 97 a4 f0 0b a2 3f 93 ad 1b c2 83 44 85 3f
       0.03524734505845109 0.010384587632379183
000540 6b 40 15 79 b1 c2 ce bf 6a 45 39 a3 c7 08 ca 3f
       -0.24031656658417275 0.20339293928058605
000550 45 10 51 a7 33 62 ca bf 2d 3c 82 ac ef f6 c1 bf
       -0.20612188024290581 -0.14034839556959025
000560 e9 b6 c0 d9 ee a1 c7 3f 3a ab bd 7f 62 78 b8 bf
       0.18462930328808305 -0.09558692568468255
000570 af ca 7b f3 09 80 cf bf b1 6f 5b 10 a7 69 cd bf
       -0.24609493626447462 -0.22978676127138223
000580 7f 7f 18 44 e1 7e cb 3f 1d 54 af 12 36 a0 9a 3f
       0.21480956864342812 0.026001782312807465
000590 4d 49 86 4c 89 e0 d0 3f 6b 47 4c a8 62 d6 78 3f
       0.2637046096143834 0.006063828831217903
0005a0 bb d3 24 eb a5 e7 c2 3f 80 99 83 23 25 08 b6 bf
       0.14769433957704145 -0.08606178395311836
0005b0 19 a9 fa 10 66 55 c4 bf 7e 67 c9 e5 8a 49 d5 bf
       -0.15885616139468864 -0.33261368217574006
0005c0 6c 5c 61 95 c1 f0 ba bf 0f 69 68 bb 41 b7 ba bf
       -0.10523614785175689 -0.10435877633463896
0005d0 1b 1f 5e c2 92 aa d4 bf 85 dc 0d e9 0a 8a 77 3f
       -0.32291096669404035 0.005746882074951225
0005e0 0e f3 87 c5 d1 e1 cb 3f 12 70 cd 21 1b ed dc 3f
       0.2178289618022053 0.451971800813909
0005f0 02 aa 25 32 8f 80 e3 3f 50 20 ad 8c ba a7 e1 3f
       0.6094432811199229 0.5517246959289057
000600 f3 f6 23 7b 31 26 ca bf b0 c6 9c fa 59 70 d6 bf
       -0.20429056656569564 -0.3506073901545319
000610 d0 1e c5 06 35 3a c3 bf eb 1b 91 01 2b 36 d0 3f
       -0.15021384077612376 0.2533061518956276
000620 41 6b 06 07 5e c0 d9 3f 9c 07 1b ad 3b 45 a8 3f
       0.4023661678890456 0.047403206711819496
000630 86 03 49 23 95 ac da bf 10 b3 70 71 e9 ae c1 3f
       -0.41678360410519877 0.13815038718293993
000640 ac 87 6e 43 04 01 c9 bf 27 2e 64 67 5a 25 ce bf
       -0.1953435258156423 -0.23551492737202404
000650 ec b8 c4 ab 46 d8 e2 bf 65 c6 9a 3a 2b a6 e4 bf
       -0.5889008860447382 -0.6452842850323576
000660 16 09 2d de 8f 1d d3 bf cd 41 4b 22 ff 7b c3 bf
       -0.29867932030551125 -0.15222157644758597
000670 58 fa a4 79 8d b0 c1 3f 51 b2 d4 2c bc f3 d2 3f
       0.13820045890493549 0.2961264074135999
000680 36 42 28 c3 c5 ea d5 3f 30 45 45 d1 13 14 de 3f
       0.3424543767769451 0.4699754279764248
000690 a6 ca fd 42 ea fa d7 3f 93 70 ac dc 08 38 9c 3f
       0.37468964140058814 0.02755750510105821
0006a0 d7 8b 22 36 4e 74 ca 3f f8 39 e2 77 54 6a a8 3f
       0.20667436259563374 0.04768623317169224
0006b0 ba 0e 6e d3 00 72 c0 bf a8 c3 b0 c5 06 c3 ab bf
       -0.1284791023609751 -0.054222308761729565

b1 f8 [8]
000000 a6 3c b8 e0 f2 05 d5 bf 7a da 43 cd 41 f9 dd bf
       -0.32848808236389926 -0.4683384422818687
000010 ba 0a cb 24 20 6b c2 3f 84 a5 bf 43 bf 78 d8 3f
       0.14389421268977803 0.38236981979442697
000020 74 4b f5 d8 d0 1c aa bf 3c 7e cd e9 ee 40 c8 bf
       -0.05100109718718829 -0.1894816056837828
000030 c6 21 91 14 45 25 d3 bf bd fa 8d 6c 12 ed c1 3f
       -0.2991497708176464 0.14004736233251505

w2 f8 [16, 8, 3, 3]
000000 26 73 79 98 80 4a d2 3f d4 93 dc 33 01 dd b8 bf
       0.28579726114348813 -0.09712226406243413
000010 f1 7f 11 a6 14 0c c2 bf 32 98 1c 2e 53 a9 c0 bf
       -0.1409936724548966 -0.13016738654659005
000020 3a d9 3c e1 2d 94 d1 3f ab 50 5b ff 8e ab cf 3f
       0.27466914173000456 0.2474230524882207
000030 e7 d0 75 32 b0 b3 88 3f 2c e4 6d 1f 1d 6e a5 3f
       0.01206147817604415 0.041855726324634496
000040 12 e9 b2 a4 13 68 d4 bf c8 0c 53 ac 77 8c a1 bf
       -0.3188523395907775 -0.034274806771941224
000050 fa 13 c2 c5 89 58 cc bf 6b 64 0f a4 d9 49 c1 3f
       -0.22145197063596794 0.135066228015407
000060 de b7 fe 25 69 d9 b4 bf e3 0f f0 0d 6a dd d2 bf
       -0.08144242456066261 -0.2947640548811689
000070 95 12 58 d1 1b 03 d3 3f 72 0c 66 70 9b f0 d0 3f
       0.29706473773721004 0.2646854970591398
000080 5b ca 3f cf 64 5b d4 3f 0e e2 9c 65 da fe cb bf
       0.3180782340925014 -0.21871499978603065
000090 d0 f0 af bd 1b 71 ae 3f d3 c5 12 45 1f 7f c9 bf
       0.0594566983272401 -0.19919196007462733
0000a0 cd b3 d1 ac ad aa b8 bf 40 10 a1 4c 46 fb ce bf
       -0.09635434598176502 -0.24204329244287415
0000b0 b4 7c e3 4c f7 71 d5 3f fd c3 90 4e b2 d7 d6 3f
       0.3350809336533971 0.356915070270645
0000c0 07 4e 1d fd c0 71 c6 bf 52 8a dc 64 78 32 d2 bf
       -0.17534649237732955 -0.28433046197657064
0000d0 1a 77 36 2b 73 91 b9 bf da 16 10 d1 55 08 b5 bf
       -0.0998756390094652 -0.08215843538354353
0000e0 e7 d4 d6 c4 e2 af c3 bf c9 d4 51 da a9 1e bc 3f
       -0.15380510913170228 0.1098428876883474
0000f0 78 ff 37 65 53 94 c6 bf 88 e5 58 7c fa 03 d4 3f
       -0.17640154306718236 0.3127428259209286
000100 6c e4 08 1a f1 1b c0 3f a1 3e 59 58 34 d1 d3 3f
       0.12585271617152516 0.30964382770341997
000110 99 b9 8e 34 05 6d d1 3f 68 09 92 3a 46 d0 cd bf
       0.2722790730721499 -0.2329185281742625
000120 96 fe 58 a5 1a d8 b2 bf 45 82 72 b2 2f 76 cd bf
       -0.07360998665626037 -0.23016926015135844
000130 f7 8d be 72 43 c4 a3 bf 51 2b 52 2f 26 7d ad bf
       -0.03860674644172584 -0.057595437313543336
000140 cc 20 b6 95 72 d9 c2 3f ea aa 40 15 3f 63 d1 bf
       0.1472609740269547 -0.27168252063226694
000150 18 aa b7 e3 1b aa c0 3f 7a 3d 66 bf 8f c4 79 3f
       0.13019131297126374 0.006290971292755793
000160 87 b7 7d 23 5e 53 9e 3f 30 83 ad e0 32 1b cd bf
       0.029614897648051943 -0.2273925396975982
000170 c1 73 42 57 72 f8 c8 3f 84 c5 f9 8f c7 7c cd 3f
       0.19508198986741657 0.23037046938001648
000180 5c 1e ad 74 24 2b b3 3f 23 00 f4 3e 30 c9 d1 3f
       0.07487705086270452 0.2779045691277153
000190 34 16 b7 e4 04 e3 d1 3f cc 57 09 b1 7b 6f c3 3f
       0.27948114715067907 0.15183969635353234
0001a0 0c fd 95 54 2f 7b c8 3f 36 98 5a 5d 02 e9 b7 bf
       0.19125930433435945 -0.0933991887964972
0001b0 90 80 9a e8 11 ba 9f 3f 5b ab 04 6c 16 04 d0 bf
       0.03098323805045361 -0.2502494864335653
0001c0 95 63 1b 0b a0 53 70 bf 0a 9b d0 36 78 37 be 3f
       -0.003986001176337424 0.11803389871839101
0001d0 84 a3 e2 2f 24 47 d0 bf 3a 3b d9 92 6f d2 c8 bf
       -0.25434212375926557 -0.19392199201907961
0001e0 f8 bf ce 2f f7 23 cf 3f 65 de 4f ca 28 16 c8 bf
       0.24328508219105038 -0.18817624929919244
0001f0 69 a8 20 6e 9b ff 92 bf 72 f4 fa 71 3e 99 d0 bf
       -0.018553188892987658 -0.2593532670105737
000200 50 6e 83 73 ff 53 c0 3f fc 7b 1c af 4f 7c 63 bf
       0.12756341114332992 -0.002378612168186132
000210 51 99 a1 23 7f bb d1 bf 3f 3d bf e7 64 37 c1 bf
       -0.27706888656247936 -0.1345029956414496
000220 53 07 2f f9 b4 37 bf 3f e6 51 1d b1 16 b3 b8 3f
       0.12194377025209961 0.0964826757820628
000230 5b 01 73 f5 cb 67 d4 3f 9a 32 30 cd a4 69 d1 3f
       0.3188352486577252 0.2720729831496925
000240 10 0e b8 c6 de 8a c0 3f 49 2d a5 49 a1 d6 d0 bf
       0.12923798277925913 -0.26309997741619334
000250 f5 bc 29 59 76 78 d5 3f 31 0a d5 f0 4c bf d0 bf
       0.3354774351818855 -0.26167605894821394
000260 61 6f 1f c7 16 15 c9 3f ba 12 4a 5e 34 29 cb 3f
       0.19595608446877136 0.21219496349308092
000270 3f 28 f4 9c 01 b8 d2 3f 4e 1c 20 16 12 9c 92 3f
       0.2924808533431395 0.018173487282208627
000280 a0 b1 45 8f 94 c9 b2 bf 97 31 8e 78 01 03 d1 bf
       -0.07338837144715749 -0.26580845616333576
000290 72 21 d6 c6 c1 3c cf 3f 50 6c 7b a8 c1 c5 bb bf
       0.24404165467081956 -0.10848627436955494
0002a0 dd ce f6 19 f5 28 b4 bf 6e 17 34 98 4d c1 d2 bf
       -0.07874996074570668 -0.29304828513738
0002b0 89 46 04 74 7f 7d d2 bf 11 b0 35 ae b3 41 94 bf
       -0.28890978173976883 -0.019781882770459506
0002c0 e2 44 30 aa 90 d9 bb 3f ff 76 f5 c7 4d 3f d0 3f
       0.10878852992052004 0.253863759300529
0002d0 ec 61 4b de 75 cf 8c 3f 7f 46 b0 e3 36 cd ca 3f
       0.014067574354542388 0.209387646843016
0002e0 e3 dd 68 1e 4c b1 d3 bf 96 1a ae 9b dd e7 c0 3f
       -0.30769637078944195 0.13207597829405832
0002f0 bd cd d0 e4 09 93 d3 bf be ef 01 a3 fa 76 d0 bf
       -0.30584952683713224 -0.2572619048949
000300 e0 d6 f7 8d 83 8b d5 bf a7 89 b3 7f 68 0e be 3f
       -0.33664025177072965 0.11740735166271198
000310 2e 26 df 74 9f 78 71 3f cf c6 6c e1 80 76 b0 3f
       0.004265425564832932 0.06430821898973281
000320 63 99 5c ea 8d c1 c8 bf 88 96 ab 32 44 ce d4 bf
       -0.1934068102211298 -0.3250895018412412
000330 93 d9 79 ca cf 0f 78 3f 6a 09 cf fa 87 46 c6 3f
       0.005874454196251116 0.17402744051475888
000340 d8 6e df e9 fb 2a d4 3f 87 7c e2 74 66 b5 c9 3f
       0.31512353743685884 0.20084839541684493
000350 2a 80 fc ca b5 16 d2 bf e1 9b 95 9d ce b4 87 bf
       -0.28263611624606944 -0.011575330909819161
000360 b0 af 2e c7 8d 8f d1 3f 6b 1c 71 27 e5 a1 d0 3f
       0.27438682986643936 0.2598812947439401
000370 90 38 a7 9a 10 3d ce 3f 06 d2 d3 67 45 6a b1 3f
       0.2362385516302692 0.06802781853532033
000380 24 88 eb 3e 11 ff ae bf 02 d1 95 a7 be bc cc bf
       -0.060539759569806756 -0.22451003249046414
000390 84 13 e7 8f 18 d6 ab 3f c1 2f bc a5 65 35 ae bf
       0.05436779743789713 -0.05900113723882284
0003a0 63 ba 15 3e d4 d8 bc 3f cf 8e 59 4a a8 21 d4 3f
       0.11268354907745386 0.31455428372121913
0003b0 02 da ea 74 e3 5e c9 3f 43 98 a3 4d 43 83 b5 bf
       0.19820826729637991 -0.08403416295513559
0003c0 c0 ed 1e c5 d7 42 af bf c5 1e 53 e7 01 98 89 3f
       -0.061056845486259004 0.012496962425202604
0003d0 c8 a9 3d 69 d5 ce d4 bf 17 b4 85 22 70 0b d3 3f
       -0.3251241233580484 0.2975731217509873
0003e0 a5 9d 0f 6d c0 a2 d0 3f 84 96 fb b4 3e 9e c7 3f
       0.2599335732506581 0.18451675259636968
0003f0 8d f0 77 6d 23 50 96 bf 4b 93 bd 85 82 6a d4 bf
       -0.021790078693797944 -0.3190008455333568
000400 8c 7a 74 dd 05 22 c7 bf 2b 3b 3e 26 9b 0e 77 bf
       -0.18072579682571577 -0.005629163791936158
000410 15 7e dc 92 80 1e d3 bf 80 f5 0b a3 bf b9 8f bf
       -0.29873670904086796 -0.015491006053248269
000420 97 80 3c e0 8c e9 ce bf 15 c0 b5 cc 2e 3d d5 3f
       -0.24150238942184352 0.3318593024368977
000430 75 9a 69 db 82 cd af 3f dc 1a b8 4c 52 a0 d2 bf
       0.06211480072379497 -0.2910352467737718
000440 52 f0 12 36 88 3a a7 3f 9b 4c dc f4 60 b3 d3 bf
       0.04536843929369695 -0.3078234091964959
000450 4d 28 83 30 87 a3 b8 bf 34 c9 d4 e2 ba a5 9b bf
       -0.09624524053939006 -0.02699939736812347
000460 10 3d 84 9d ca 70 c9 bf 4a 27 49 23 fb 16 80 bf
       -0.19875462237585184 -0.007856332792602356
000470 04 24 7b fb a6 c0 c4 3f a4 04 7c 28 5e d6 c7 bf
       0.16212928084704015 -0.18622948624400693
000480 cf de 39 4a 04 97 c4 bf ac d4 90 cb a0 b6 bd 3f
       -0.160858665698234 0.11606793374888252
000490 7a e2 b4 e8 93 08 aa bf 7a 3a c1 ba c6 b1 95 3f
       -0.05084669318825248 0.021185975216491994
0004a0 78 93 dc 89 8f e4 d2 3f 60 d8 14 f7 9a 4f ca bf
       0.29520023787545524 -0.205554361958721
0004b0 0e 0d 26 26 0a 36 d2 bf 96 25 18 bf 59 fa c5 bf
       -0.28454831815197756 -0.1717025931432487
0004c0 d1 b5 16 96 cb 58 66 3f 3c eb 7e 97 a1 52 c1 bf
       0.0027278877539262743 -0.13533420464758616
0004d0 cc e1 65 15 c8 10 b6 bf 9d 63 2c 4b d6 b4 d3 bf
       -0.08619356653605975 -0.3079124197116075
0004e0 be f3 20 b0 45 d7 b6 bf d0 74 99 d9 d9 27 c9 bf
       -0.08922229337709006 -0.19652865529034225
0004f0 69 99 c4 3a 0b f7 b1 3f 5d 6f 4e 38 d9 c5 c3 bf
       0.07017584023251335 -0.15447535752616207
000500 72 7b b8 27 00 41 c8 bf dd e8 34 2f a0 7f ba 3f
       -0.1894836610744864 0.10350991394526284
000510 c7 44 9f 6b 89 4d ad bf 3f ed cf 0a 91 fe d9 3f
       -0.0572321838259398 0.40616251045112856
000520 1c df 26 67 0d 93 c2 3f e0 95 26 f0 9d 24 c4 3f
       0.14511268173895864 0.15736746049985495
000530 df a5 09 85 8b f7 d9 3f 1d 1f 49 2c 59 2c d3 3f
       0.4057339476772465 0.2995818073727479
000540 71 b9 16 df 1e b5 d6 bf 7b e1 23 ff 21 6a d3 bf
       -0.354804723606228 -0.3033528319934004
000550 56 ef 91 e0 fa 3f 93 bf 58 f4 2a 23 d5 6c c2 3f
       -0.018798751789730637 0.1439463063924531
000560 0e 70 6c 9a 9b e5 d0 3f 49 a8 3c b9 58 6b 99 3f
       0.26401414947918134 0.02482355719181609
000570 2a e4 b8 bd 64 de c6 bf 85 6f 83 7d 64 ea b4 3f
       -0.17866191161900363 0.081701546328473
000580 c8 b6 87 59 ea b5 a8 bf 93 1a 7d d5 d0 d0 c1 3f
       -0.04826290457627419 0.13918505119564326
000590 5e 92 4c 15 d6 41 d5 3f 95 ae a1 74 7e e6 c8 bf
       0.3321433265685182 -0.1945341176500405
0005a0 28 d4 fb 3c 0a a0 ca bf 6b d1 72 15 a3 8f ad bf
       -0.20800903299064655 -0.0577364886934529
0005b0 29 39 54 fe dd 49 d3 3f a5 f2 db cd 0d f6 cc bf
       0.3013834937745679 -0.22625896980016083
0005c0 28 73 41 25 fd 6a d0 bf fe 57 c5 4f 31 b4 b9 3f
       -0.25653008116005305 0.10040577123194791
0005d0 74 49 a4 ce 23 e6 88 bf 82 e1 ea 28 49 b7 cf bf
       -0.012157706969934103 -0.24778093812870955
0005e0 92 65 a1 7b 00 9b 85 3f 77 90 83 0a 1c 3d ca 3f
       0.01054954888620577 0.2049899150216594
0005f0 8a de 1e 86 fe 01 c1 3f 0a f3 f5 e4 e3 cb 55 bf
       0.13287335919243431 -0.0013303494959863737
000600 6f ab 3e 3a cf b2 d3 bf 23 49 e9 1c 1e 81 c2 bf
       -0.30778866470307426 -0.14456535731967177
000610 74 6a d3 a6 c8 6c cf bf c8 b4 b6 df a2 81 7d bf
       -0.245507317979747 -0.007203708864307497
000620 38 eb ed 37 fe 7a 91 3f 8c 76 02 64 97 4d bc 3f
       0.017070743716867315 0.1105589503444781
000630 46 63 16 ea 1d 21 c0 bf 56 45 87 d0 15 e1 72 3f
       -0.12601064615298635 0.004609189236775299
000640 a5 60 fb 87 d6 d2 ca 3f 97 e2 3e f3 e8 e9 af bf
       0.2095592655157407 -0.06233146638209524
000650 c1 4d 7a f7 96 71 b1 bf 97 01 b8 f0 9f ff b5 bf
       -0.06813949148118238 -0.08593177439616394
000660 e5 ab 3c 42 e6 3f d5 bf 00 99 e2 16 24 29 bb bf
       -0.3320251128049548 -0.10609651144713794
000670 c7 8a 80 d5 2c 21 c6 bf 8e c2 20 0b 72 d6 d8 3f
       -0.17288742470653615 0.388088713519246
000680 51 7e 4e 34 ab 34 ca 3f f3 2e 0c c7 51 e4 a4 bf
       0.20473232320817883 -0.040804439113427814
000690 48 7c a6 be 64 90 ad 3f b5 6a 58 75 e6 27 db 3f
       0.057742260239358745 0.4243103166533431
0006a0 2f ed ed e1 76 f6 ce bf d1 6e ba 8d ef d3 c2 3f
       -0.24189649612149242 0.14709276600193857
0006b0 88 ba 5b 31 86 03 cb bf 02 f1 28 ad 1e 72 ca 3f
       -0.2110450497634313 0.20660766081881127
0006c0 ce 5b 0e 83 cb fb e0 3f a1 cd 06 e1 64 a6 ca 3f
       0.5307366904916024 0.20820294368386974
0006d0 3d af 6e 72 d8 df ba 3f b1 92 67 e9 a8 62 dc 3f
       0.10497811120756935 0.4435217170087454
0006e0 b4 45 12 1f 4f a5 dc 3f b9 17 ee d9 ce b6 d0 3f
       0.447589664786473 0.2611577156279697
0006f0 b1 ad cf 9b 76 4d d8 bf 2d 08 b5 b0 80 10 ce bf
       -0.37972798553411297 -0.23487862232474424
000700 dd ae a0 ab 8c 85 d6 bf 1b 92 8c 10 f6 e4 d4 bf
       -0.35190121422304604 -0.3264746820080135
000710 42 35 7f fd 25 3d d9 bf 53 a8 e5 80 6e 0e c1 3f
       -0.3943572021060683 0.13325291913798995
000720 a8 a3 c8 d9 52 12 97 3f bd 42 cf 4c 62 82 c2 3f
       0.022530836622681655 0.14460400343388882
000730 ba 67 0c ce f3 e5 cf 3f 89 76 df 6e 18 74 c6 bf
       0.24920508919677592 -0.1754179517146677
000740 86 4c 3a 1a bb 66 c0 bf d4 ad 71 62 68 88 d3 3f
       -0.12813509731913458 0.3052006684654007
000750 2d 36 3e a6 f4 a8 90 bf 78 da ac 45 2d 9b ce 3f
       -0.016269514700573296 0.2391106214724521
000760 76 fe 02 ed 7e 4a b1 bf ac bd a9 97 be 91 d6 3f
       -0.06754296575945226 0.3526455384335019
000770 91 eb fa 4e 9d a2 c9 3f f1 11 51 8c 6c 16 b9 bf
       0.20027510029271103 -0.09799841333103367
000780 0e 7f 69 07 78 a6 b9 bf 7f d4 ad bd 67 a4 b0 bf
       -0.10019636326751089 -0.06500862484775104
000790 96 56 dc 81 9d 70 d7 3f 63 8a aa 68 94 b3 c5 bf
       0.36624849015911687 -0.1695428381982139
0007a0 44 3d a1 39 d7 6a c7 bf 14 20 2b a3 b2 28 be bf
       -0.1829480201144894 -0.11780849917988717
0007b0 1d b6 a3 03 cb 5c c6 3f dc 56 17 24 3d 83 d9 3f
       0.17470681836805194 0.39863518261459574
0007c0 88 4b a5 e9 6e fd c5 bf b0 12 f4 9d f2 19 a8 bf
       -0.17179666908722546 -0.04707296541349615
0007d0 f7 1c c0 69 82 ce af bf 5b 25 f1 92 f8 5c a2 3f
       -0.062122416886319635 0.0358655623791246
0007e0 e1 a4 1f 0a 4f 72 b7 bf 2f e9 39 04 3a 98 ad 3f
       -0.0915879630771488 0.05780202199544459
0007f0 f4 c8 8c 53 20 76 d5 3f 54 5b cd 38 eb bf c4 3f
       0.3353348556439777 0.16210689805549328

b2 f8 [16]
000000 68 1a 5f cf 58 d7 b6 bf 9b 96 cd 59 7b 3e 94 3f
       -0.08922343313961678 0.019769599300522783
000010 8a ad eb 11 34 85 da 3f 66 60 be b7 34 0c b1 bf
       0.4143800902372382 -0.06659249769143258
000020 23 65 13 64 fc 70 d5 bf ab b4 5e 1d 52 0d bc bf
       -0.3350211121847499 -0.10957825867690711
000030 33 b0 e5 84 d5 5e 96 bf 7e bc a6 d3 bf 7e d0 bf
       -0.021846138225939348 -0.25773616475175476
000040 b6 c6 f6 42 3b 59 d0 bf d8 1e 40 59 49 0d 90 bf
       -0.25544625796747356 -0.015675684044281407
000050 ee 71 55 a6 65 94 c9 bf 76 ff 72 c6 40 6d d5 3f
       -0.19984121915594194 0.3347932756405422
000060 dc a6 72 ee ad c9 ab bf b8 93 f3 e4 21 15 cf 3f
       -0.054273066861538516 0.2428324096610177
000070 0b c7 b6 93 b1 ec c9 bf d4 45 68 a3 4d cd b8 3f
       -0.20253581726643008 0.09688267936169065

w3 f8 [100, 1024]
000000 aa 02 f7 23 42 6d 91 bf 79 2f c4 a4 78 ef 9d 3f
       -0.017018350072023715 0.02923382287649143
000010 a1 7f bd 50 3e e8 9a bf 0e 4e 76 12 74 80 89 bf
       -0.026276563337318874 -0.012452036679667901
000020 f4 99 bf 13 99 60 9c bf c4 33 ca 1d 72 40 aa bf
       -0.027712241964673326 -0.05127293218274745
000030 1a f9 27 a2 d2 8f ac bf c3 42 19 da d3 b8 86 bf
       -0.05578478078312994 -0.01109471806845031
000040 12 1c c5 d9 96 8d 9a 3f 5e 2e 7e 1d 31 83 a4 3f
       0.025930745164512166 0.04006341443081561
000050 cd 98 44 5d 79 d7 81 bf f5 c6 f8 b6 5c 52 a5 bf
       -0.00871176544076171 -0.0416439984659415
000060 6e e1 93 a9 9a 56 a0 bf f6 7f 16 c1 18 0d a6 3f
       -0.0319107372287729 0.04306866986303241
000070 76 25 d3 0e 73 75 91 3f 03 02 b7 b7 1a 3d b3 bf
       0.017049596576531788 -0.07515112862802913
000080 6f c1 d1 18 cf f6 a4 3f 12 3b f3 8d 8b 76 97 3f
       0.04094550302477528 0.02291315130133415
000090 06 05 18 55 a1 94 ae 3f 38 d7 28 7f ec db b2 3f
       0.059727708470754634 0.07366827110749063
0000a0 cd 51 4e 7e f1 19 94 bf b6 b9 bd fb 59 d5 a0 3f
       -0.019630215963461418 0.03287774274837167
0000b0 99 81 60 8e 0f 04 81 bf 1d 71 88 56 e5 a3 88 3f
       -0.008308526546955618 0.012031356528546195
0000c0 b4 b4 43 22 36 70 6f bf e8 9b 71 c7 d9 60 97 bf
       -0.003837686281363684 -0.022830393598635285
0000d0 5d 27 8e 3a 9d 84 89 bf 97 5d 57 af c6 07 a4 3f
       -0.012459972714868145 0.0391218270339621
0000e0 a8 b2 ab df 8b 5e a6 bf 91 29 65 5d 7b c2 82 bf
       -0.04369008164744531 -0.009160007274336109
0000f0 44 fb 5a 96 93 fd ac bf 00 d5 43 69 fa 06 ab 3f
       -0.056622135261469114 0.05278761420223965
000100 23 4d 09 18 5c 14 9f 3f 71 78 55 03 1c be 81 bf
       0.03035110375124107 -0.008663386203519448
000110 c3 28 c5 d5 86 e9 a8 bf 51 cc d6 4c bb 61 b0 bf
       -0.048656667323102386 -0.06399126649812216
000120 04 b1 36 aa 50 66 b6 bf b7 d0 6b 6e 32 e6 a5 3f
       -0.08749870448690805 0.042771888713021004
000130 17 15 cc fa c2 42 a9 3f 06 b9 f6 de 07 68 af 3f
       0.04933747588624209 0.061340566603904675
000140 0b 22 30 ec 62 eb 87 bf b0 1c 16 d1 82 f1 9c bf
       -0.01167943270958551 -0.028265041362399657
000150 10 1d ac 19 68 55 5d bf 1f 4d 6c 1d 19 8c a4 3f
       -0.0017903820614167433 0.040131363717728734
000160 4a 75 d8 38 8a 41 88 3f ba be 49 d0 f5 e5 85 bf
       0.011843757495678137 -0.010692520541140883
000170 36 0e 4a d4 99 3a ac bf e9 c6 76 f4 67 5c 61 3f
       -0.05513458935186259 0.0021192579622145613
000180 5f de 54 e7 1b 7b 76 bf 75 bc ee e7 8e c1 a8 bf
       -0.0054884996400726685 -0.04835173207481428
000190 bc 58 b2 7b 45 6c 93 bf 0d 8b d7 f6 15 9e 81 bf
       -0.018967710184903494 -0.008602305980223624
0001a0 e4 4c 1b fb 05 a8 a6 3f e5 81 d2 7e a4 90 8b 3f
       0.04425066652552248 0.013459477539357454
0001b0 d6 d1 ac fd 62 93 8d bf 5b b4 fd 5e 7c 11 89 3f
       -0.014441274038838364 0.012240382813354758
0001c0 13 d4 e4 0c fb 36 a1 3f 11 ad c5 5c 2e d4 a8 3f
       0.03362259418864979 0.0484938133475571
0001d0 5a 97 bf 8a b8 37 90 3f 16 72 51 3e c1 30 81 bf
       0.015837558239489048 -0.008393773760126993
0001e0 f1 48 e1 c1 64 4f 96 3f f1 37 58 9e 78 a4 b3 bf
       0.021787237485406178 -0.07672838083109902
0001f0 7a 2c 1f d2 70 c3 a4 3f bd 4f 58 4a a9 f4 98 3f
       0.04055359425509493 0.024370808756500873
000200 ac 48 62 db 82 c9 86 bf 23 ab 9e 32 8d cf b4 3f
       -0.011126539535585366 0.08129198537669118
000210 2a a6 6f 0e 89 02 a2 3f d3 87 6c 4a cb 41 7f bf
       0.03517559338781624 -0.007631105522507969
000220 db da 19 ea 33 fd 89 bf c4 a6 12 7e 3b ca 99 bf
       -0.012689977246947695 -0.025185517854572806
000230 16 f7 1e 81 2f 1c aa 3f 19 2e 5e d5 1f 3d 9d 3f
       0.05099628878768507 0.028553483388845977
000240 99 14 2c e1 2e 54 92 bf b2 c6 71 0d 9f 86 94 bf
       -0.01789925813047386 -0.020044789500792866
000250 ca 33 fe f3 a7 96 86 3f c2 f9 bd 2f 05 c0 76 bf
       0.011029541143011818 -0.005554218539940372
000260 77 c3 a1 d6 2d 73 67 bf 66 4f 5f 8e 2b 69 75 bf
       -0.0028625388413776004 -0.005227251187495207
000270 68 d2 12 50 e2 d2 96 bf 6f 63 0a 3a 1d 89 a8 bf
       -0.022288833749103537 -0.04792109807494326
000280 9d 64 01 cd 3d 0c 8e bf 54 3c 1b 4e c7 b8 80 bf
       -0.014671786135453774 -0.0081649370871714
000290 01 92 c3 7b 05 cf 78 3f 81 b2 14 44 92 76 8b bf
       0.006056806010950045 -0.013409750654852505
0002a0 82 11 12 a8 ff 89 92 bf 11 f2 26 51 ba e8 b0 bf
       -0.018104548104490366 -0.06605114442113115
0002b0 dd bb 3e 48 55 84 a3 bf e9 a9 82 bd 26 b3 8f bf
       -0.038118996685959174 -0.015478422792814821
0002c0 d6 ec e3 36 41 ab 91 bf c9 97 5c 1e 81 83 9d bf
       -0.01725484750293734 -0.0288219618588739
0002d0 e6 c7 69 56 2c a5 8c 3f cf 45 a3 77 70 da 6f 3f
       0.013986917864915637 0.00388833967472444
0002e0 4c f5 6b 60 a1 2b ac bf a2 80 58 0f b0 0b 9f 3f
       -0.055020373363712766 0.030318022667530038
0002f0 68 ca 22 c0 84 38 9f 3f 81 1b 7c 50 45 0c 84 bf
       0.03048903868393396 -0.009789029616070756
000300 96 e0 f1 dc a5 5d 8f 3f 7f d3 81 a4 52 cf a8 bf
       0.01531533794899102 -0.04845674760955542
000310 74 37 c1 6d c6 08 92 bf f7 c8 12 da 51 d8 a8 3f
       -0.017611599396608793 0.048525388593946
000320 6c e5 d2 3c 7c 31 5e bf 9f 5b de 5f 0f af 95 bf
       -0.0018428529031509723 -0.0211756136191884
000330 0d 96 f2 38 ba 3f 8d 3f d4 72 0c 51 13 59 8f bf
       0.014281706679251572 -0.015306616698177157
000340 83 a9 39 24 07 72 9d bf 3c c3 39 32 6f 9c 8b bf
       -0.028755294404996256 -0.013481968612923383
000350 bf c7 d7 43 f8 57 8a 3f 80 68 d6 9e 41 f8 5d bf
       0.01286310154953074 -0.0018292084526821129
000360 8c f4 1c ac ac d7 97 3f d5 21 f4 23 fe 44 86 bf
       0.023283670430136058 -0.010873780700891547
000370 30 c5 a4 c0 ec 41 8b bf 4f 2f aa 80 db 4b 8b 3f
       -0.013309335354821344 0.013328280319249734
000380 0d 0e 1e d2 d1 f2 88 bf 97 bd 04 36 b8 63 95 3f
       -0.012181891655706623 0.020888212487248117
000390 08 c9 01 e5 5b 02 9f bf a8 e5 49 59 af 82 91 bf
       -0.030282436230160165 -0.01710008604502425
0003a0 36 3a 4a 66 bf 90 94 bf 60 f1 ef 86 4a a5 68 3f
       -0.020083418482096792 0.0030085044486424656
0003b0 29 2b 5c 88 71 96 8b bf 9d 55 1c d2 3c 9e a1 bf
       -0.013470541929128626 -0.03441038193538335
0003c0 26 08 b3 aa cf 35 a3 3f 5a 6b c9 09 90 63 7e bf
       0.037519921862909464 -0.007419169091543798
0003d0 be 82 fe 11 45 03 80 bf 3b 7c c6 45 d5 ef 97 bf
       -0.007818736659659261 -0.023375828155277594
0003e0 fb 0d bc 3d 56 74 9b 3f 7c c6 35 78 e1 23 97 3f
       0.026810977476101155 0.022597811662711895
0003f0 a7 7c e6 55 91 9c 7a bf f0 6c a4 5d 50 ea aa 3f
       -0.006496970860467111 0.05256892340750052
000400 25 d2 37 7d a9 85 9b 3f aa d4 3f 78 fb 73 82 3f
       0.026877067821219697 0.009010281188219633
000410 24 af 33 cc 87 d5 9e 3f 2a e6 6a d6 a6 eb a7 bf
       0.030111429060453734 -0.04671975486185105
000420 8f a2 36 b9 b1 b9 71 3f 9d c6 83 49 73 25 a4 3f
       0.004327482445127941 0.03934822342297404
000430 98 46 62 66 79 55 b1 3f 5c e2 60 6f 65 e4 95 bf
       0.06771048307043726 -0.02137907497692236
000440 9f d3 b8 7c 38 4f a0 bf 61 2c a4 42 f4 17 b3 bf
       -0.031854405617571795 -0.07458426119789997
000450 0c 3f b8 60 72 35 98 3f 9e 82 7a a3 60 3b ac bf
       0.023641383317282424 -0.055140514331701626
000460 19 e1 77 b0 f7 0e 9d 3f e9 63 55 32 d4 7e a2 bf
       0.028377409120339345 -0.036123877662880784
000470 ef 30 34 03 2f ec b6 bf e6 43 ec e0 09 ed 94 3f
       -0.08954137638301395 0.020435480454640408
000480 d2 5e 73 18 84 6f 97 3f d4 b0 ae a9 23 cf 8a bf
       0.022886337272978015 -0.013090399375720464
000490 7d d0 d7 c0 9b a4 a0 bf 70 a1 b9 0c b6 68 5a bf
       -0.032505862512977914 -0.001611879141728858
0004a0 ad 42 09 71 9c 34 7e 3f db 24 82 6f 5d 87 94 3f
       0.007374392604632502 0.020047626429492076
0004b0 14 df fc 60 fc 6c 93 3f 43 53 23 af 5b dc 99 bf
       0.018970435542740097 -0.02525466209847883
0004c0 3a 33 8b 4d 0d ef 94 3f fe f9 ce 34 36 bc 76 bf
       0.020443160875220225 -0.0055505864556253375
0004d0 d4 0a 94 15 fb 36 b0 bf 92 6c e8 b0 6a db 91 3f
       -0.06333894039930082 0.017438571021653866
0004e0 f4 cf 9a c8 30 7a 9d 3f a6 99 ae 38 a0 76 aa 3f
       0.028786432498875983 0.05168629352492653
0004f0 90 15 47 fa 79 e7 ae bf e9 8c 41 82 d5 7e a7 3f
       -0.06035977535388348 0.0458895417694068
000500 b3 d9 a0 00 08 35 61 3f 1c 89 05 ec d6 63 91 3f
       0.0021004825876176025 0.01698242011605898
000510 5d 49 07 33 0d 26 ac 3f 59 3e 70 60 5f fa 69 3f
       0.054977810362873504 0.0031711447550220426
000520 a0 cf 39 11 0b c0 a1 bf f4 9d a4 47 bf 83 a0 3f
       -0.03466829858089615 0.032255151267516796
000530 4f 39 a6 14 da 62 92 bf 4f 12 81 e4 20 74 5a bf
       -0.017955214987119657 -0.0016146012512915536
000540 5c 18 fb 06 2c e5 94 bf 1d 36 0a 5d f7 ad 96 3f
       -0.020405471731259048 0.02214800362940227
000550 73 ee ce f4 79 f9 80 3f ae a3 2d 18 5a a5 40 3f
       0.008288338454682553 0.0005079927362717695
000560 68 c7 8a d7 db 50 7f 3f b2 f7 11 f7 51 63 83 3f
       0.007645472295438306 0.009466781952365586
000570 b4 da 71 5f 11 9a 9f bf a6 85 8d 50 f0 60 a5 bf
       -0.030861159754261805 -0.04175520880995558
000580 09 33 cc 26 0e 47 94 bf ad bc cc 0f 05 87 ad 3f
       -0.01980230438043676 0.05767074411266413
000590 20 7e 7f 0b b2 a5 92 3f 67 d8 dd d5 74 c6 22 3f
       0.018210203124793378 0.0001432435628278578
0005a0 35 50 d1 33 b0 b7 b0 bf c7 20 34 33 fe 3d 98 3f
       -0.06530286088065014 0.023673984408589612
0005b0 93 66 9c 76 2e 99 56 bf 73 64 f0 ab 4a 79 6c bf
       -0.001379294752445058 -0.0034758051329047356
0005c0 34 ec 2c 6a ad f4 85 bf 23 79 3c d8 71 cf ad bf
       -0.010720591356962662 -0.0582233025036081
0005d0 d2 6e 1a 62 93 5d b0 3f 31 fa 71 9c cb 0e ac 3f
       0.06392785210703814 0.05480037960750329
0005e0 52 a2 0f 82 2e 41 a8 bf b9 ad 88 38 14 28 9b 3f
       -0.04737229669246247 0.026520076704555005
0005f0 0a 4b 0e 27 6e 04 a3 3f 5b 38 82 10 2f 09 75 bf
       0.03714317538028496 -0.0051357115227244855
000600 29 f6 af d3 7e 63 a7 3f 72 c1 c6 63 c2 33 97 bf
       0.04568096479486556 -0.022658383693568714
000610 04 d3 8a 23 8b ca 87 3f 2f 8c 8a 6d c4 6c 9a bf
       0.011616789838947657 -0.02580553930841861
000620 f2 64 c6 a3 fa d9 ab 3f f8 6c 8a cc 9e 16 a5 3f
       0.05439742325979492 0.04118820425829911
000630 ed 88 ca 01 5e e1 9b bf 3b 7b 58 46 a4 3b 90 bf
       -0.027226895198176605 -0.015852515023762264
000640 a6 fe d1 5e d4 16 8e 3f bf 0a 12 2d 7d 51 a1 3f
       0.014691981452642121 0.033824836494223735
000650 c0 b6 dd 8e 14 9f 54 bf 99 e0 14 c8 c1 3d 9e 3f
       -0.001258630825272375 0.029532459103592677
000660 46 6f 06 f7 18 20 b4 3f 8e d7 19 29 bf f1 94 3f
       0.07861476927649588 0.02045344055519354
000670 d9 b2 90 cf 98 79 88 3f 76 18 dd aa 96 55 81 bf
       0.011950677713764278 -0.008464028443665433
000680 9c 13 e5 12 db 3f a1 bf 7f 83 e9 cb ca 08 7c 3f
       -0.033690305763719425 0.006844322370484045
000690 08 a8 29 6d bc b1 87 bf 8d 62 25 f2 ff d1 6c 3f
       -0.011569473344213335 0.0035181044524217942
0006a0 d1 df 21 79 96 8a 88 3f c4 39 48 2e f5 02 8f bf
       0.011983085223832209 -0.015142360186499178
0006b0 a8 31 65 20 9f 0f 9b 3f f5 a6 61 e7 3c 6a af 3f
       0.02642677912926819 0.06135740589600217
0006c0 8e 81 85 4f 98 f2 ea 3e b5 d4 5d 69 a7 98 60 3f
       1.2849634445089694e-05 0.0020259160764291803
0006d0 5e 61 97 3a fa 33 6a bf 49 f2 e0 ac 77 d8 78 3f
       -0.003198612907663697 0.00606581447760541
0006e0 d5 23 b7 85 90 fc b4 3f ac 32 48 00 e3 00 9c 3f
       0.0819788290456381 0.027347132580006914
0006f0 47 37 6c 6b 5c e8 8f 3f 85 b7 5f b3 67 ab 94 bf
       0.015579912212640002 -0.020185108492959642
000700 19 78 f1 1a 5b a2 57 3f 39 63 bb 49 69 0c aa bf
       0.0014425172519376749 -0.05087594056175821
000710 cd b0 c6 2e 70 6f b1 3f 8a 97 94 f6 81 cc 94 3f
       0.06810666219707003 0.02031138484485199
000720 f2 a9 fe db 70 b8 44 bf a5 bb a9 ce 14 f1 9c 3f
       -0.0006323386260096971 0.028263402093610463
000730 7d ac e9 e1 bb 8b 75 bf f2 d1 d8 b4 15 66 9a bf
       -0.005260213771730024 -0.025780047572156968
000740 63 fa 53 c1 74 40 b5 bf fc ea a9 3b 17 cb a4 3f
       -0.08301477165148578 0.04061195948903237
000750 9c 9c 5e 7e 46 e4 af 3f ef cc 23 dd b7 ba 93 3f
       0.062288477827047134 0.019266960975937882
000760 b5 ea 10 06 31 69 99 bf e3 41 ac 49 e6 e4 b6 3f
       -0.02481533622288153 0.08943023012785249
000770 cb 9f aa 02 2d a6 90 bf 59 87 36 a3 ca 91 a8 3f
       -0.016258910453558244 0.047987301276647805
000780 83 5b 3c 18 aa 0f 8d bf f3 ff 62 7f f2 1b 9c bf
       -0.014190033783547445 -0.02745036032206367
000790 51 b6 6e 02 24 24 7c bf 95 05 00 3e 24 c6 b3 3f
       -0.0068704039212384585 0.07724215043710665
0007a0 99 ae a5 3b 7c 2f 94 3f 4b a1 aa bd 2e a9 4d bf
       0.019712391987396136 -0.0009051779009796949
0007b0 89 57 e9 96 c9 6f 7b 3f 91 f2 e0 6e d6 77 9f 3f
       0.006698405703522322 0.030730581777094704
0007c0 00 9d 6d 71 ca e8 b2 bf a7 99 55 2b b0 70 5d bf
       -0.07386460561030006 -0.001796886482532048
0007d0 40 37 db c9 88 94 47 3f be 72 fb 21 f5 fb ad 3f
       0.0007196109688380817 0.058562908552379764
0007e0 9c 5f ed 35 98 43 a1 bf fc 3a 85 16 f6 07 93 bf
       -0.033718830664553695 -0.01858505737737469
0007f0 4f 01 e8 fb b5 2d a5 bf 17 0b db 44 41 d6 77 3f
       -0.04136437130000791 0.005819563824561744

b3 f8 [1, 100]
000000 e4 b6 d0 e2 f4 3b 63 bf 55 ca 75 04 57 1f 87 3f
       -0.002347925465548838 0.011290244887935655
000010 60 bc 96 fd 7c 64 b0 bf d3 5b cb ee d9 ea 65 3f
       -0.06403332892544844 0.002675462388974628
000020 c9 a5 60 67 b1 72 a8 bf 7d 92 99 c8 f3 8f 5c 3f
       -0.04775003802235351 0.001743305272975309
000030 27 97 8a 1d d3 6f 70 bf fc 4b c0 d1 32 65 87 bf
       -0.004012894315257565 -0.01142348959550609
000040 d2 3b f6 76 81 cb 52 3f 82 0a 8c 9f 21 b2 af 3f
       0.0011471523574504328 0.06190590927692076
000050 6f b5 62 a7 fb fa 9f bf 7a 7b fa 5a a1 8b a7 3f
       -0.031230861750989044 0.04598716960503331
000060 96 8b 3b 32 36 fd 9b bf 0a 6c a1 10 26 f3 91 3f
       -0.027333113494829663 0.017529101147697936
000070 ca d6 d7 92 e0 45 97 bf 2f f7 6f b8 98 52 a1 3f
       -0.02272749801883015 0.03383328677590069
000080 d4 c9 3a 41 fd 16 99 3f 07 aa 15 97 9c 89 9f 3f
       0.024501759630490685 0.030798384400819525
000090 8e 18 ef a2 89 30 84 bf ae 71 48 ca c0 15 a2 3f
       -0.009858203205919371 0.03532221287989344
0000a0 29 e2 09 d3 c0 65 6d 3f 4a 51 ce 45 1d 54 5d 3f
       0.0035885587788551288 0.0017900739542016813
0000b0 fb c9 94 22 3e d8 9b bf bb d1 e9 9a 5e 01 82 3f
       -0.02719208799426019 0.008791674711780986
0000c0 90 a5 ba 9b 21 97 a1 3f 28 b8 e0 33 d6 90 a1 3f
       0.03435616518010953 0.034308141548862914
0000d0 84 ee 8e 71 fc 67 84 bf 75 7c aa 78 96 11 9b bf
       -0.009963962760472407 -0.026434279551378077
0000e0 03 89 91 a0 9c 6a a1 bf f5 90 b6 f4 0a 38 8f bf
       -0.03401650867523822 -0.015243611901333479
0000f0 68 a6 0b 49 b6 ce 37 bf 16 6c 17 a2 20 cf a2 bf
       -0.0003632731468728779 -0.03673650721221848
000100 f6 6c 5e 96 88 4b 9b 3f b8 67 40 5a 1b cb 92 3f
       0.026655325105463278 0.018352916129607627
000110 72 03 bd 6b 75 26 43 3f 24 91 f4 f0 f8 31 a8 bf
       0.0005844186157234323 -0.04725625935887681
000120 c3 6f 7f 35 7b f4 a3 3f b5 1c a7 88 3e 89 8d 3f
       0.038974619179242186 0.014421928925811714
000130 6b 52 6d cf 34 58 91 bf 7f de e8 7f bf 3b 79 bf
       -0.01693804279359982 -0.006160495801445286
000140 85 14 3e 07 a3 62 99 3f 30 fc b1 8d 95 f2 96 3f
       0.024790332142874866 0.02240976025904845
000150 3b 24 81 9f 9a fd 87 bf 89 5f e8 8f ea aa 70 bf
       -0.011714179985704223 -0.0040692484458516665
000160 c0 9a 5f 7d 43 01 80 3f 96 83 04 81 1b b9 a3 bf
       0.007814910186380586 -0.038521632670614966
000170 59 53 1c c2 0c a2 87 bf da d1 6f 22 13 2d 93 3f
       -0.011539554284846142 0.018726634003501143
000180 e3 2c 6d 0a 36 de a3 3f 11 54 41 52 bf 48 a9 bf
       0.03880471112514685 -0.04938314322559035
000190 6e 63 30 15 0e bc 9e bf 16 6b 00 88 5d 8f ab 3f
       -0.03001424793555734 0.0538281658666248
0001a0 dc b0 a1 d7 a9 90 9b 3f 9d 77 51 ce fa 9b 93 3f
       0.0269190347539031 0.01914970287577199
0001b0 b1 92 d7 b9 f0 05 82 bf b8 5c 6c e2 46 92 9a bf
       -0.008800392791223773 -0.025948627061634894
0001c0 15 53 8d 16 8e cc 94 3f 2b 75 1c 07 81 b0 b8 3f
       0.020311565519779046 0.09644323752987265
0001d0 e9 ed 33 90 7b 9d 9e 3f 15 98 75 95 70 0b 92 3f
       0.029897623707240504 0.017621764299654858
0001e0 63 29 81 06 e8 ef 32 bf e9 d0 f0 d3 99 1e 79 bf
       -0.0002889577358514887 -0.006132698908050773
0001f0 a1 74 6e ed 88 b8 67 bf e2 8f 73 e2 7d 0f a5 3f
       -0.0028956102718909614 0.04113381757068148
000200 b5 e8 a8 6f a1 76 6a 3f 2d 9d 10 0c 0c d7 99 bf
       0.003230395607968973 -0.02523440192831321
000210 e5 1f 7f b6 ae d1 9a bf 52 56 d1 39 4d 91 90 3f
       -0.026190500153262426 0.01617928185836199
000220 b1 dd 39 1b 9e b0 a6 3f 56 12 ec ae 6b b1 90 3f
       0.04431623537396535 0.01630180602207284
000230 0f 11 97 99 82 58 77 3f 72 0c 4d 6d 9b 16 83 bf
       0.005699644237612724 -0.009320463440991331
000240 77 bc fa 1c 4d 6f ab bf 6a 22 d4 12 8f a8 19 3f
       -0.05358353594544323 9.787915469784141e-05
000250 87 2e 41 48 5d 40 a4 bf 5f e7 76 58 8c f5 a0 bf
       -0.039553561277526454 -0.03312338428391003
000260 f0 de 3b e8 1f b3 97 bf 0f a3 02 a3 7d ba 97 3f
       -0.02314424376433427 0.023172343325003782
000270 0c d3 c3 5f 21 25 95 3f 10 ae 9b 70 05 8d 71 3f
       0.020649453611400623 0.004284878968728659
000280 d3 62 6c e4 53 4c 9e bf ae 89 96 94 76 68 60 bf
       -0.029588042084557408 -0.002002936937701003
000290 05 5a 3c 60 3d 0e aa 3f a0 15 0b c3 0a d2 36 3f
       0.05088989066841879 0.0003482128404751154
0002a0 fe a3 8c 1d 5c d8 8b bf f1 67 b6 33 f0 6f 85 3f
       -0.013596267368102485 0.010467411592617966
0002b0 21 26 0c b6 5e 60 90 3f b9 c9 8c 46 f5 4d 82 bf
       0.015992622243208857 -0.008937755790246681
0002c0 01 c7 1d 0f 6a 12 a3 bf 20 7b 79 55 93 08 87 bf
       -0.0372498649075066 -0.011246825262046622
0002d0 b7 04 c9 4c 3e 54 58 3f fd 94 a2 70 ae a9 78 3f
       0.0014849289319871903 0.00602119579904081
0002e0 d4 9d 5c 1b 40 8c b0 3f 32 7d 18 c2 8d 93 4a 3f
       0.06464005153667723 0.0008110468081134246
0002f0 81 09 05 27 2d 4d a0 3f fb 4b bf 20 c5 f5 6b bf
       0.03183880902590187 -0.00341309072062179
000300 58 f1 a3 b8 7e b3 9b bf d4 34 48 fa 78 cf 83 3f
       -0.027051906604343173 0.009673066270830345
000310 11 9a b2 f3 8a b7 93 3f 4c 8b 34 3f 0a 7c 98 3f
       0.01925484764492508 0.023910675151579228
