HW03/Parameter/best_model99.598%.npz (npz, 835470 bytes, 8 tensors)

w1 f8 [8, 3, 3, 3]
-0.11257305381839006 -0.23233407836268455 -0.019674662549571738 0.2744561826300049 -0.1009887806400667 0.11740174908016326 0.18624747757428153 0.27801470226267877
-0.08426379294401799 0.0670563062728321 -0.27182066108273367 -0.24300744785213238 -0.17018693826248987 0.03150913762303588 0.10829593854221407 0.2796144949179338
-0.09468154567370246 0.10808816402868025 -0.14198760677521732 -0.22837181837216639 0.13927038397669605 -0.02099101523308063 -0.3356544135970611 -0.07496894735756257
-0.3495277085416862 -0.09353933528000746 0.12237326110925668 -0.2472087766695374 -0.25402984455004374 -0.10965236808444362 -0.30833776333566615 -0.2869550190789816
-0.42019210209892893 -0.2162945382097873 0.006315509206969292 -0.05390944744571025 0.41755357071862015 -0.2325786749142308 0.33098085013048184 0.17142966669037668
0.007753181712070195 0.4268145876869929 0.10047542066931749 0.19565699266828887 -0.20287401991960166 -0.20190188240976728 0.140565939919142 0.40586367440729104
0.023873835235666642 0.3006131904096951 -0.21619931588176455 0.5599203779670286 0.5718732327543028 0.5375688149658113 -0.53121022361405 -0.521003307872726
-0.5407867800915663 0.18428304194491035 -0.051642892890089186 -0.07867776799955263 -0.3375242611217486 -0.13061635646899086 -0.2761909106872675 -0.0897865430069478
0.22644812140359058 0.19509241687432155 0.5779521602017046 0.4853057726856303 0.6297377979321694 -0.1530184825820112 -0.3265084174420411 0.12627143580451197
0.2810382331712108 -0.20679046508961285 0.0563800387131178 0.39842578378780097 0.341437701671741 0.440352929885816 0.32474259399366395 0.49467853773893206
0.6680940341049555 0.021528283318121184 0.12824763114597082 -0.03758139240927849 -0.508209936276556 -0.6461010976672082 -0.5421784560404688 -0.3229174342798044
-0.2607842438775288 -0.29939700970106214 0.032285568680361997 -0.31516519423318234 -0.34042999851298766 0.48578944506579197 0.4666794291502883 0.053990902793476
0.6554204143787873 0.5786867681517663 0.3855825929728827 0.5933418096984621 0.48005323397758565 -0.1689449669285086 -0.14694009432495783 -0.280821832899738
0.016973405039108953 0.4410431097550977 0.40752859465528646 0.24640841458197918 -0.23488808500866137 0.08733119636863297 -0.075396760165043 -0.1726240449078166
0.008034852208153968 0.13147842336904364 0.029091517165463605 -0.09748266227994622 -0.19832064374925898 0.08320269514681507 0.1245803469972099 -0.22983763014636024
0.2930141258002056 -0.3019886933045531 -0.108916597382022 -0.10559729098536595 -0.0058437912596607175 0.2111646917717063 -0.2824215970385949 0.053405272126395
0.1831473462020865 -0.2181632507149758 -0.17418276727344986 0.1836583118186568 -0.08829260017776953 -0.005024543855704544 0.19272117328996435 0.21885470446299404
0.5275364981068472 0.0356119635817764 -0.16375280525294253 0.43857950717448896 0.1946397343250152 -0.10629225159917012 0.46886706624175895 0.11212617221961035
0.2595360845696638 0.2692115573905774 0.48148081998042885 -0.45443569172038356 0.22039186983782685 -0.17119136820015043 -0.03400054660599302 -0.2893833079590672
-0.43497532968633373 -0.3774476923845193 -0.7190086159751268 -0.7137543707082025 -0.18376386124855482 -0.1796873757084668 -0.36112998524830364 0.45504965491741894
0.7916571547828236 0.5743100568361971 -0.22071675093963233 -0.18977581047599004 -0.5734756432523307 -0.0025011656312406596 0.3296331794961146 0.050484445084383385
0.2000398121802051 -0.2576823292430382 0.14820297393887644 -0.05016262110547433 -0.23068030200137354 -0.2599676881555876 -0.12748590845242727 0.04634051820843248
-0.4022922044772706 0.055233089564627844 -0.30229383222102435 0.09924167288966101 0.015976569903994854 -0.05780214332366735 0.42791352016006073 0.0070326681800520425
0.18184574146223936 0.3552127808437009 0.16496095208545142 0.5416421396792945 0.4890236670024248 -0.3623720755913808 0.036514321909132376 -0.3704732317440908
0.006927538906601073 0.08952293848215173 -0.12536820152200523 0.13186019353138614 0.0829248724592931 -0.21503455159232382 0.382109291680949 0.18875046131408707
-0.16891738450519955 -0.2347216238970663 0.017576650236283603 -0.4239374184794827 0.3604309902106444 -0.04280983593743403 0.04134776381781039 0.4523929687645301
0.2452043986705171 0.5447166350541391 -0.028455826057293868 0.11570324390338793 0.36981851923033665 0.12392900524569775 0.09958865551016409 -0.3155868094385818
00000000: c492 8f70 96d1 bcbf 2e32 2882 1fbd cdbf
00000010: e24a d740 9825 94bf 0b2d 25aa b090 d13f
00000020: 52ac 1c96 66da b9bf 3ce1 ca80 0a0e be3f
00000030: a96f 9214 f5d6 c73f de9f 812d feca d13f
00000040: 0175 eeda 4f92 b5bf 08b0 6e22 9a2a b13f
00000050: 658e 6e7c 8265 d1bf 75cb 9a38 de1a cfbf
00000060: 189a 0583 afc8 c5bf c271 3b37 f721 a03f
00000070: 5714 545a 48b9 bb3f d03e ca31 34e5 d13f
00000080: 500a 34be 0c3d b8bf 577e 9679 aaab bb3f
00000090: 0ab8 c45f a62c c2bf d945 9ea9 493b cdbf
000000a0: 529a 3da8 9cd3 c13f 9561 be2f ab7e 95bf
000000b0: 6b13 4aa6 5c7b d5bf 52c4 1d39 2a31 b3bf
000000c0: 05df 4e77 a95e d6bf 58ce eaa1 31f2 b7bf
000000d0: 0d7f 5ea2 da53 bf3f e637 8a85 89a4 cfbf
000000e0: c839 a364 0642 d0bf 0c05 da76 2d12 bcbf
000000f0: 9980 6950 cebb d3bf 8c81 9795 785d d2bf
00000100: 675a 236a 6de4 dabf fd0c f517 8aaf cbbf
00000110: d739 0698 4ade 793f 4113 73e3 049a abbf
00000120: b720 a49c 32b9 da3f 2c77 4055 23c5 cdbf
00000130: a069 ba4d ca2e d53f a6ea ff45 68f1 c53f
00000140: 13e7 4ade ccc1 7f3f 2491 e421 ee50 db3f
00000150: 8199 d3d5 c1b8 b93f cd3b 5fd0 490b c93f
00000160: 85a1 61a0 c6f7 c9bf 6db3 f9be ebd7 c9bf
00000170: fc2d 7191 10fe c13f 61ad 0da2 abf9 d93f
00000180: 3ae5 44f6 6172 983f 3b93 631b 3f3d d33f
00000190: b89b 904f 6bac cbbf 636f f723 deea e13f
000001a0: 9e66 0418 c94c e23f 9615 f483 c333 e13f
000001b0: 6324 3795 acff e0bf 497a 0d21 0fac e0bf
000001c0: 0947 d313 204e e1bf 3e2e 2e33 9696 c73f
000001d0: 8349 11f0 ef70 aabf 79f8 7ae8 3924 b4bf
000001e0: 64f7 c75b ff99 d5bf f9b1 ad69 09b8 c0bf
000001f0: 5fac 36a4 1cad d1bf f2f2 d539 40fc b6bf
00000200: bba3 d585 40fc cc3f a01e 16cf c9f8 c83f
00000210: 0401 5787 957e e23f adaa 8ff1 3f0f df3f
00000220: 268f e5e1 cf26 e43f c3c7 2f11 1c96 c3bf
00000230: eb10 b28f 83e5 d4bf 0d84 9993 a929 c03f
00000240: 9e57 19c9 87fc d13f 409e 5726 1c78 cabf
00000250: 6f11 d72c d8dd ac3f 091d d0db ce7f d93f
00000260: 4d4c 9384 1dda d53f ccab 230e be2e dc3f
00000270: 258b 3429 95c8 d43f d1cb 672b d0a8 df3f
00000280: 9245 64bd 0661 e53f 4252 29a3 820b 963f
00000290: 78dc c71a 6b6a c03f 6007 ac46 de3d a3bf
000002a0: f2eb f97b 4143 e0bf d77d 8c35 dcac e4bf
000002b0: 4c44 29a2 8659 e1bf 2f8f e2e2 adaa d4bf
000002c0: 5d07 b165 b0b0 d0bf a1eb 4b13 5229 d3bf
000002d0: 5bd6 3aeb bb87 a03f 986a 84a2 aa2b d4bf
000002e0: f732 8ce7 9ac9 d5bf 132c d39c 2c17 df3f
000002f0: e9a6 7a65 13de dd3f e619 8f13 b2a4 ab3f
00000300: b567 9c3b 34f9 e43f 67df fa1c 9a84 e23f
00000310: 216d ae9c 62ad d83f a323 80f6 a7fc e23f
00000320: 0175 1133 31b9 de3f 4110 e419 fd9f c5bf
00000330: 8d65 ccd9 eece c2bf 5fa8 1323 fcf8 d1bf
00000340: e5ce 2dee 7961 913f db8d 21e1 0c3a dc3f
00000350: c8ac 8ed0 f214 da3f 215e 0b99 4f8a cf3f
00000360: c687 aa11 d010 cebf b1e6 5258 565b b63f
00000370: 651a 22bb 334d b3bf 75ef b071 8b18 c6bf
00000380: 9c9d b29b 9374 803f aaf5 3ff4 48d4 c03f
00000390: 124a 44ab 2aca 9d3f 9b5c 6bae 9ff4 b8bf
000003a0: 7d2a 8323 9262 c9bf 9539 9896 c54c b53f
000003b0: 1acd 1364 7fe4 bf3f 8f33 6fc8 516b cdbf
000003c0: 86fc e451 bec0 d23f 214f 6062 c853 d3bf
000003d0: 8a54 bf47 f5e1 bbbf 3f0e 548f 6c08 bbbf
000003e0: f8ae 84c5 a8ef 77bf f15c 9dd2 7107 cb3f
000003f0: 31c0 bd08 3213 d2bf 8f06 6f92 ef57 ab3f
00000400: 60c1 244b 5f71 c73f 6943 81fd c5ec cbbf
00000410: f5ad 7bf4 9e4b c6bf 6929 7395 1d82 c73f
00000420: f108 3e06 589a b6bf b3e1 99b8 9d94 74bf
00000430: 8279 4360 16ab c83f 6045 1f53 6e03 cc3f
00000440: bb16 da38 94e1 e03f 7c32 dc35 bb3b a23f
00000450: 4b46 9817 daf5 c4bf 91a7 00c8 af11 dc3f
00000460: f6ca b66e f4e9 c83f 99c7 6f10 f835 bbbf
00000470: 2d82 eb02 eb01 de3f d479 b502 4db4 bc3f
00000480: 3ef3 d63c 3d9c d03f 0da8 ac1c c33a d13f
00000490: b1e6 dded 94d0 de3f 74bf 8470 7915 ddbf
000004a0: 1ffe a000 cd35 cc3f 5779 e347 99e9 c5bf
000004b0: eb0e 7007 8568 a1bf c251 ec90 4185 d2bf
000004c0: ad74 e4c3 a2d6 dbbf db7f af5d 1a28 d8bf
000004d0: faf8 645b 1e02 e7bf 8733 f267 13d7 e6bf
000004e0: 98e6 1fff 9285 c7bf cb01 16f5 feff c6bf
000004f0: 74c5 0ff1 c01c d7bf 234a 7b96 881f dd3f
00000500: eff8 ad62 4155 e93f 0303 fc7b bf60 e23f
00000510: 5688 7b4d 7240 ccbf 957b c8e1 924a c8bf
00000520: 4848 9a97 e959 e2bf a75e d112 537d 64bf
00000530: 1630 67c3 b518 d53f 6932 30e1 18d9 a93f
00000540: 9e21 9b91 e79a c93f f1c7 3606 de7d d0bf
00000550: 9a63 1ea7 50f8 c23f b261 4242 eaae a9bf
00000560: dbb1 76a0 ee86 cdbf 4647 a983 4fa3 d0bf
00000570: e583 c04f 7551 c0bf 86ac 5ec4 f1b9 a73f
00000580: 8d99 6acd 27bf d9bf 669a acf2 8247 ac3f
00000590: f2fe ca3a c858 d3bf e01f 76fb e667 b93f
000005a0: 7aac f574 295c 903f 897e 6d16 3e98 adbf
000005b0: fba2 a663 ef62 db3f b91e 647d 49ce 7c3f
000005c0: e6a3 3fa4 b846 c73f 0413 3663 cebb d63f
000005d0: 0a7a 29c3 701d c53f 6adb 81e5 2155 e13f
000005e0: c7b4 2fec 294c df3f ff82 69a5 1a31 d7bf
000005f0: dde4 de54 01b2 a23f 5b98 985b d5b5 d7bf
00000600: 35db ba10 0d60 7c3f 26cd 05ad f9ea b63f
00000610: a067 bfb2 100c c0bf c146 6e79 cbe0 c03f
00000620: a5d5 3c7f 903a b53f daad 4c8f 4086 cbbf
00000630: 181d d187 7a74 d83f 1e76 39a1 f928 c83f
00000640: fc7c 16b9 159f c5bf 0ca5 26b1 5b0b cebf
00000650: 1895 c007 9dff 913f 01e2 fa68 ca21 dbbf
00000660: f4da da24 4d11 d73f 7fc8 98ba 2beb a5bf
00000670: c56f b8ba 882b a53f 292d 72a3 01f4 dc3f
00000680: 1b07 9094 db62 cf3f 57a1 a494 516e e13f
00000690: 14dd 2f29 8623 9dbf 782d 9b50 ba9e bd3f
000006a0: 132a 634b 1bab d73f 8a5b 8eb0 cfb9 bf3f
000006b0: fb00 7862 a47e b93f c39c 6504 9332 d4bf

b1 f8 [8]
0.14143626790659644 0.12254264798662062 -0.05269722636486678 0.12777599966649464 0.06985985666745842 -0.162253503230903 0.3532133082621275 -0.23083687409014722
00000000: ab45 9068 951a c23f 28c0 7779 f45e bf3f
00000010: 176e a77f 21fb aabf af01 e4c5 f65a c03f
00000020: a0a2 b0e7 55e2 b13f 63e2 0409 b9c4 c4bf
00000030: 06dc dffd 0b9b d63f 69ca 760c 108c cdbf

w2 f8 [16, 8, 3, 3]
0.08823155569969428 0.14085128511704867 0.25037547581177266 0.2171467035054781 0.0423332523491989 0.010312649799272633 0.21166599487879845 -0.00639393269048552
0.00941568132100982 -0.2296490899121755 0.22527919285871428 -0.25476987828405173 -0.17136524500176115 -0.32212285698064325 0.09882200837587445 -0.2681322868293293
-0.25640467712441684 -0.22831239083523502 0.3656591999181512 0.21112383770339727 -0.03869191166433153 -0.3040724964879324 0.016855273317330537 0.14266678407392908
0.13780483131525026 -0.13199540019569636 0.12745530558575838 -0.16588602663706406 -0.022914077055485482 0.30532637039437793 -0.01340066542485446 -0.34978333703399744
-0.14849146627852416 0.200446621922015 -0.35091914870482604 0.17751758599788842 0.09135374377620348 0.16495975236608557 0.2029849250463711 0.16415764146442918
-0.004141154350203672 0.2831335737632428 0.04083047847994744 0.03991618084184069 -0.18383038024811388 -0.2456306921527489 0.15404308826218985 -0.1638161158523434
0.29361336134423266 0.0001360806270901788 0.22169518288406526 0.26383167840514005 -0.2968789588191567 0.1528457335510872 0.2107196029193357 0.20811440152472246
-0.1010178548148659 -0.2887601433384448 0.0706116471735239 -0.034049979467430866 0.06838563439292235 0.23082899772951737 0.010581371934885453 0.23983205465711874
0.15980342378551635 -0.006400420316177038 -0.1895139550434269 -0.3018251549627803 -0.2997397501677361 0.05521617452743145 0.18789459242604606 -0.3294754930825599
-0.03528401988273136 -0.015433687686417702 -0.08955261203432621 -0.3364299929912576 0.22915744395270488 -0.30225415010220313 -0.31603382561390136 0.3114627109663518
-0.2296147776610504 -0.1772700099177569 0.011413578682290294 -0.28726366975817097 -0.339221657437787 0.0817319825698839 0.04796160841936438 -0.23457388745185978
-0.21501288342092945 0.040306688079366826 0.017466875112556256 0.06036170430850862 -0.09874901715232817 -0.07399146453641517 -0.04439233851902864 -0.02277668179467788
-0.03534940307225399 -0.13891065469784045 0.06124731782747915 0.2509807810985905 -0.10329368005766613 -0.11199359725277337 -0.02282149671590146 0.1370720767853591
-0.16939567622357707 -0.03632235186509074 -0.010895739857823723 -0.2676990091030442 -0.06047625073217389 0.2475842241895253 0.1507658153127155 -0.17018801818049334
0.212121793172915 0.2906043262318849 -0.32013984104363835 -0.16264700054202197 -0.32435813633115157 -0.058141510248203514 0.2482652872620375 0.03371331266692967
0.06674226888798507 0.30651488843785984 0.24245556503851193 0.30767514336476676 0.3295809111561478 -0.20397054033390385 0.3464731114887034 -0.13672283123378481
-0.13684077283166324 0.25344115387164884 -0.013641364604530396 -0.16265221098897473 -0.2240510801710134 0.14319002089692395 0.05535268435246364 -0.15717034263353535
0.28714442149071734 -0.24318468473627716 -0.2658999507828642 -0.0421338699089776 -0.18494760842551822 -0.19597017091624377 -0.043949284247818 -0.3246959489385968
-0.28075369883606877 -0.2413044438337918 -0.08917841077706186 -0.07141638345189734 0.08808819241740463 0.16159909482421078 0.2155302587959631 -0.273051786133683
0.2731394474630422 -0.14491927234547453 -0.35625025066591215 -0.0872488862251952 0.0425956624458587 0.20065377920335342 -0.301465838808176 -0.03531601092642193
-0.00011222011376177789 0.45566084271816376 -0.1777373740660038 -0.10450905627407471 -0.029755827544857207 0.08581238041220134 0.21685520164853603 0.027910320273520087
0.10463860955273475 0.2130550304673761 0.3479501970292032 -0.15510094398501914 0.2783276363317835 0.0488573443833833 0.2960828615312929 0.2963119072982326
-0.2752514287285996 0.28897309440524194 0.39274260154907437 0.17984988962203527 0.2546935752996324 0.12255116790081481 0.02811317340836896 0.11390149538677231
-0.012551358454215133 -0.03433435669788487 0.28334701632117426 0.25855642112913585 -0.17861659983422956 -0.12768037736622123 0.03443047473276149 -0.2517165726975648
-0.17250035530033261 -0.03627922102169581 0.12130933898844218 -0.38641427636689524 -0.28273290019135966 -0.34285352932107854 -0.11682221245759884 0.242674387929582
-0.19696185946084288 -0.016629215585063823 0.2621699682662928 0.3705600024178606 0.18096818670117026 0.0971620731149565 0.3158199590089634 -0.2544491147043499
-0.2626993687813888 -0.0447049591330879 0.09609614804967852 0.14945040512476393 0.17965447703976117 0.2444393842871236 -0.2824240765136153 0.12502680391539825
0.30534008718487926 0.0322753167793998 0.31405596061193497 -0.16650608246006152 -0.014475028539546244 0.040220470343563054 0.15956873096775276 0.07760226607477617
0.040118456473761284 0.347009724273842 -0.19487407480994456 -0.10456854516328919 0.33318272471317634 0.1949146787686565 0.2935773583344988 0.05634164886955904
-0.20416994206216996 -0.0912030814325873 0.41565766383092484 0.14234826080911547 0.3065206436401968 0.4665705064196659 0.43075799081909955 0.09120872359064618
-0.14847333843999136 0.1819883833291632 -0.36510373505334565 0.11743648234623766 -0.09349725375257174 -0.300302239880903 0.4636310086227257 0.23638008590336893
0.1564606651703563 0.24495967080281075 0.10149552102065058 0.29113195098654865 -0.2524121129130906 0.30871695472049915 -0.2675069582779708 0.2706884101961694
00000000: 6594 34de 5796 b63f 9fb1 9637 6a07 c23f
00000010: 883f 15dc 2606 d03f 16c0 fe92 76cb cb3f
00000020: 2b0a bf3c b4ac a53f 53db fb6c cc1e 853f
00000030: d001 d70e df17 cb3f 9f7e c63c 8630 7abf
00000040: 9511 bf5a 8748 833f 794e 5d31 2465 cdbf
00000050: fe12 e6d6 f2d5 cc3f 0819 cf51 264e d0bf
00000060: 4a0f 7add 4bef c5bf 22a9 0130 a99d d4bf
00000070: 8373 192e 664c b93f 1ac1 bb52 1429 d1bf
00000080: a09c b229 ef68 d0bf fc56 f425 5739 cdbf
00000090: ae51 48d8 f566 d73f 08ca 2b1d 1b06 cb3f
000000a0: f4a0 6f1e 6dcf a3bf f3d6 017d ec75 d3bf
000000b0: 6bfd a63e 8242 913f b058 e9b9 e742 c23f
000000c0: f969 ddb5 96a3 c13f ad0e 88ab 39e5 c0bf
000000d0: 71a4 9898 7450 c03f 6f81 a2d9 c03b c5bf
000000e0: d00b 49ae c976 97bf aad0 dc9d 778a d33f
000000f0: 9e81 f4dd ce71 8bbf feca 4fa6 d962 d6bf
00000100: 605f b3b3 c401 c3bf 6cd6 df22 3ca8 c93f
00000110: 898d ce96 7575 d6bf c2b3 2971 e5b8 c63f
00000120: 1cce e27d f562 b73f c2c7 c8b2 661d c53f
00000130: c8dc 53f7 68fb c93f 3636 bd1a 1e03 c53f
00000140: f76c 07a8 50f6 70bf 649d ed47 dc1e d23f
00000150: 4bb8 8083 bbe7 a43f e206 98c6 e46f a43f
00000160: 72a4 96ff c087 c7bf a84e d896 d370 cfbf
00000170: b566 2115 afb7 c33f 3e60 122e edf7 c4bf
00000180: 5418 29b2 8fca d23f 86f5 99af 1bd6 213f
00000190: 727a 15fc 8160 cc3f 0587 9943 9ee2 d03f
000001a0: 7cec bf9a 1000 d3bf b3af 77f1 7290 c33f
000001b0: 5913 9525 dcf8 ca3f af09 3022 7ea3 ca3f
000001c0: cfee bd5e 4edc b9bf 9cb8 01d3 0b7b d2bf
000001d0: b3b4 53db 9a13 b23f d6f2 7bb8 ff6e a1bf
000001e0: 41db 3b8f b881 b13f fcbd 1bfa cd8b cd3f
000001f0: 60d5 41b3 afab 853f a374 a417 d1b2 ce3f
00000200: a74b 7947 7074 c43f 76a5 04bf 5337 7abf
00000210: 7308 8647 fe41 c8bf ae37 6b74 1a51 d3bf
00000220: 5706 12a2 ef2e d3bf 9270 9c5f 4b45 ac3f
00000230: c255 c814 ee0c c83f 5de0 e760 2016 d5bf
00000240: 447c ef3e bf10 a2bf b06f f57e b29b 8fbf
00000250: 6274 f583 ebec b6bf 199f 52aa 1188 d5bf
00000260: 88b6 b4f7 0755 cd3f 303b 71ca 2158 d3bf
00000270: 1a41 5cf0 e539 d4bf ea88 614b 01ef d33f
00000280: 4fc3 5d5c 0464 cdbf 3145 949f c8b0 c6bf
00000290: 34b7 5d99 0060 873f b02d bc28 8762 d2bf
000002a0: ce92 32c1 ceb5 d5bf d0c5 2c20 63ec b43f
000002b0: 62dc 3f87 6c8e a83f 23f8 8c63 8406 cebf
000002c0: 8e7a 41cb 8a85 cbbf e8ce 3806 14a3 a43f
000002d0: d6aa 7c25 d6e2 913f ef29 dfb3 bae7 ae3f
000002e0: be6f 2e97 9d47 b9bf caf6 5dc8 1af1 b2bf
000002f0: 4aae 43b4 97ba a6bf ea9b ad3d c552 97bf
00000300: 91c4 4124 5119 a2bf 4f20 7f07 d3c7 c1bf
00000310: aecf 12f6 ce5b af3f 018d afb1 1110 d03f
00000320: 872d bb61 7471 babf f9e2 8fc5 9cab bcbf
00000330: b48a 29b8 845e 97bf 1a74 7eeb 938b c13f
00000340: 9766 bbec c1ae c5bf 56ad bfe2 d798 a2bf
00000350: 6432 d772 8150 86bf 443a 5106 fb21 d1bf
00000360: e1a4 283e bef6 aebf 3c24 f300 d7b0 cf3f
00000370: d4ba 0f53 4b4c c33f 88cd 2092 b8c8 c5bf
00000380: 6b28 3992 ce26 cb3f ec7d 4fe3 4299 d23f
00000390: ce75 dbd0 2b7d d4bf d86b 0fee 9dd1 c4bf
000003a0: abf6 eea0 48c2 d4bf e7b6 1c5a b9c4 adbf
000003b0: 2ae1 c22c 28c7 cf3f 3046 b00e df42 a13f
000003c0: f07d 2276 0516 b13f fbf8 649f f09d d33f
000003d0: 0b6c 49b1 c808 cf3f 5ecd a215 f3b0 d33f
000003e0: 5f4c b388 da17 d53f c170 0ae8 b41b cabf
000003f0: d463 b28e 9d2c d63f 4400 623c 2280 c1bf
00000400: 4a22 099a ff83 c1bf 09b6 d53e 6138 d03f
00000410: 154e cbf6 00f0 8bbf 2fed 68a3 c9d1 c4bf
00000420: a9e6 fbae b4ad ccbf 02d4 6ef4 0c54 c23f
00000430: fe4b 14e2 2f57 ac3f 188e c164 281e c4bf
00000440: 9d03 e2fe 9260 d23f eb49 eafd ac20 cfbf
00000450: d2b4 273a 8104 d1bf 8f3e a012 9292 a5bf
00000460: 229c d4fc 5cac c7bf 7fd4 89f1 8c15 c9bf
00000470: 25d1 0d45 8580 a6bf f96f 7584 d1c7 d4bf
00000480: 3fd8 ae5c def7 d1bf 2ca3 5263 10e3 cebf
00000490: cdf6 cb75 65d4 b6bf 1512 5317 5848 b2bf
000004a0: c1b4 98a1 f28c b63f e9a5 aa75 47af c43f
000004b0: b0dd 69da 7e96 cb3f 5dbf e332 ae79 d1bf
000004c0: 507b 86e0 1d7b d13f d457 a4f7 b68c c2bf
000004d0: 3f52 f3d9 cdcc d6bf 7e1b f368 f155 b6bf
000004e0: 1516 5042 19cf a53f 82a4 bfe5 05af c93f
000004f0: 6eb5 a25f 374b d3bf c587 e8af f014 a2bf
00000500: 2041 cedf f66a 1dbf 42b5 6218 8c29 dd3f
00000510: c9f8 7128 19c0 c6bf d13d d502 1bc1 babf
00000520: eaab aec8 4f78 9ebf 535a 76d7 ccf7 b53f
00000530: 2523 8647 e9c1 cb3f 11c0 2ee3 8594 9c3f
00000540: 718b ed8d 98c9 ba3f 6586 0d22 6345 cb3f
00000550: c923 38e7 d044 d63f 0348 ff04 59da c3bf
00000560: 2c8d e7b7 1ed0 d13f a192 9770 d403 a93f
00000570: 43b6 cb87 05f3 d23f 05b9 d037 c6f6 d23f
00000580: 5743 242b b89d d1bf 6b3e 7901 897e d23f
00000590: 0a8d 59dd b122 d93f 37d4 0e39 5205 c73f
000005a0: 6f72 1a48 e64c d03f 8b79 386a 835f bf3f
000005b0: 25bd 8021 b3c9 9c3f a1d4 a6fd a528 bd3f
000005c0: 665a a6d0 86b4 89bf 0011 4bd6 4594 a1bf
000005d0: 1931 2186 5b22 d23f 85e8 3a3b 308c d03f
000005e0: 2ac6 67a3 e8dc c6bf 727e 90a2 d457 c0bf
000005f0: be09 ed05 dfa0 a13f 4d39 e6d3 1f1c d0bf
00000600: 811a 48dc 7d14 c6bf 2405 a0a7 3093 a2bf
00000610: d69c a7fb 200e bf3f 3503 edf1 02bb d8bf
00000620: ccce f4bb 4b18 d2bf 3324 f0ed 4ff1 d5bf
00000630: f1a5 f37d 0fe8 bdbf e5ff dd4f f40f cf3f
00000640: 20ca 78d4 0b36 c9bf 4549 62c4 3f07 91bf
00000650: 0c9d ec8b 64c7 d03f fcc8 e54c 41b7 d73f
00000660: c6bc bf2d f729 c73f 70b7 7016 9ddf b83f
00000670: 1486 d7ea 6436 d43f 7baf 89f0 e448 d0bf
00000680: 5c23 6603 11d0 d0bf 7d29 e482 91e3 a6bf
00000690: 031b 25d5 c199 b83f 8441 31dd 3021 c33f
000006a0: ee9d bbfb eafe c63f 9b0c af2c ca49 cf3f
000006b0: 99a7 0e6f 3c13 d2bf 3d53 f8d8 e000 c03f
000006c0: 647a 2726 b18a d33f 3535 12ec 6386 a03f
000006d0: c64b fc2b 7e19 d43f 3122 6041 1250 c5bf
000006e0: e1f6 7c71 15a5 8dbf 15bc 8209 c797 a43f
000006f0: 9240 7c88 bf6c c43f c1fb e2fa bddd b33f
00000700: d9a6 0a05 688a a43f b69b 4946 6835 d63f
00000710: e4cf 1239 a2f1 c8bf 01a8 aa11 01c5 babf
00000720: 8e0e 8fa2 dd52 d53f 4b2e 69d5 f6f2 c83f
00000730: bd22 39b0 f8c9 d23f 2d4e 9806 d0d8 ac3f
00000740: a3da fd9b 3d22 cabf 9321 0ccc 1559 b7bf
00000750: d013 1f9a 229a da3f 15a8 68c2 7738 c23f
00000760: ecf1 fec2 089e d33f 9c70 968a 4adc dd3f
00000770: c1c1 c3f6 8991 db3f cb85 ee74 7459 b73f
00000780: f5be 76a2 2c01 c3bf 1349 5335 654b c73f
00000790: 7fe6 6c0e dc5d d7bf 9ccc 083b 5110 be3f
000007a0: 6d13 229f 6fef b7bf c00e cde2 2638 d3bf
000007b0: eb8c dc64 21ac dd3f d1b8 30e1 b341 ce3f
000007c0: e52f 0230 e706 c43f 8fef 77a7 d65a cf3f
000007d0: 8563 7947 9cfb b93f a8b4 13e8 e7a1 d23f
000007e0: eadc 8422 8527 d0bf 49b2 0fc2 04c2 d33f
000007f0: 9067 5081 d51e d1bf d2b8 4c7b f552 d13f

b2 f8 [16]
0.0029462169814533923 -0.09118653725634561 0.27486391987734454 -0.2296609929242374 -0.3147999842103314 -0.17419759389079448 -0.05140438504560131 -0.2314651769811982
0.11928309271547136 0.11773307167711648 0.24833586941499394 0.2017822213195808 -0.06215263105842007 -0.14271683779602792 0.45364500890381804 0.0676912857496848
00000000: 40e4 a132 aa22 683f 3ffb 593b 0058 b7bf
00000010: cb4e aed6 5e97 d13f ed63 e30a 8865 cdbf
00000020: 7abd 3dd5 ae25 d4bf d8c3 6654 1b4c c6bf
00000030: 72a0 48f1 ac51 aabf 5107 a6a2 a6a0 cdbf
00000040: 52be 2d36 5689 be3f 5bc6 822c c123 be3f
00000050: f7d2 c742 78c9 cf3f b8ac bdf4 ffd3 c93f
00000060: 9135 833b 78d2 afbf b713 769b 8b44 c2bf
00000070: e112 4f13 8508 dd3f e4e2 8452 3754 b13f

w3 f8 [100, 1024]
0.05317268872484598 -0.05843488083209516 -0.028006126957364375 0.03932301603737611 -0.06032075849775823 -0.01548699959931161 -0.04144314446727106 0.05717015359993521
0.001555105490686975 -0.012754233632024424 -0.06123171286813297 -0.03084305709437387 -0.0023752889162965514 0.050196226484162096 0.007198512243122265 -0.0600905569152691
0.0631042141402607 0.03356024144878029 -0.026811882649059506 -0.005558611976694102 0.04020697031009038 0.03668980596679365 -0.001290706477610406 -0.012377593903279893
0.006897088795067066 0.06660102371113563 0.06045853828434292 0.006211019384692547 -0.0005067818614563698 -0.007692509729690437 -0.024205062462530718 0.01263108444076801
-0.015631906728687698 0.0036766980275645404 0.02759618179683545 -0.026636087489618043 -0.10044469577411176 0.0517294130062065 0.02374932761585951 0.0366320081862229
-0.008965821440127336 -0.0347234077871199 0.06598172099299743 -0.015532464872292312 0.01677705282529714 0.00407084853234471 -0.03960288392489096 0.035487157729378535
0.002161686866651703 -0.017015176190624627 0.06843954289998717 0.08527369885652007 0.06720656999861789 0.016494486609822296 -0.0565883527882827 0.024951187980189037
-0.03529347518317559 -0.0034646965226805557 0.014350631134694458 -0.016100843588702552 0.02558645789597792 0.01178739120582402 0.005684446237295251 0.024437367196602326
0.02927394161770341 -0.01755046540258372 0.006252449508155419 0.04049350049421401 -0.04970752727390001 -0.022536532893978854 -0.016373739236739963 0.05387045498092802
-0.06566483019552394 -0.030848416885935006 -0.0031619905291211084 0.014969936679506196 -0.01050350206651168 0.01230000253935367 -0.005929082527978542 -0.01004909313280613
0.04468141714824635 -0.03308612141851454 0.06821972420396441 0.004386580565503939 -0.02104837384739426 0.03375936987692715 -0.04213218756366066 0.011353302727155151
-0.005535953017834103 0.012130903530613895 -0.05648003603622545 -0.007961162519374858 0.00857351076041205 -0.0030545796306466564 0.03879444731736915 0.027093843874157163
0.018047888672204606 -0.0009418087015520423 -0.021891376046313873 -0.010486240986306851 0.014920941027103073 0.006383218650530716 -0.017901394390538734 -0.0160594700676893
0.0646440339406347 -0.029853526621849154 -0.05311740443057484 -0.006713802511248486 0.022110035837063984 -0.03092591496330879 0.015475902915640195 0.01857789274739926
-0.013674148618292876 0.033963656178104 -0.029345824581110316 -0.01591580687117278 -0.007951633918566493 0.017935166901557355 0.04982077848610108 -0.01921944812511487
0.003754094731941007 -0.07177482012733366 0.09691966581964748 0.012564524283032884 0.001219561216519287 0.011904371756974688 -0.004261524720290014 0.06239534085705792
-0.02988844441646375 0.04224700075028034 -0.006698221181758451 -0.06348344685061576 -0.008272189812891415 0.016466586439952496 0.005383256053026717 0.010700186666405563
0.007742392785233601 0.011573543364978026 -0.02160456859226975 -0.016175330046295854 0.014205793966325691 0.009825593180553656 -0.036342743921932125 0.010608206058830857
0.044447838941696745 0.02632277995201674 0.01172012611496039 0.04990667664670822 -0.027851180702313193 0.014252706246747548 -0.0017928346560499996 -0.03130539625054812
-0.03264756142422222 0.024651520914089634 0.04344723669593341 -0.034861106392670295 0.04922374094142422 -0.04586020995901778 -0.020822115393591828 0.009696748806053947
0.02017330865541833 -0.015565301946170408 0.04487879353498717 -0.015236472329828317 -0.01865518409866361 0.03587823006386199 -0.04724453053594952 -0.003987241910316046
-0.012488634315375889 -0.0036112763211696573 -0.06800125449680947 0.040443824072347374 0.006420142301259168 0.03930240052977887 -0.010754076817653252 4.9975063083466826e-06
0.005520182433717812 0.041119319903961 0.02173746164818667 0.017837255658574674 -0.03752898660187045 0.022675156413588013 0.03244718016530531 0.0075708649769277775
0.03231356874264756 0.01800180392447184 -0.017871332423134566 0.015239603670154684 -0.014766013404745267 -0.05857507449063345 0.08774134816926359 -0.021349829502966464
-0.03791047371291201 0.011053780486913233 0.012090645450138188 0.005669271924164774 0.010036396098323366 0.013577744137730207 -0.00045058562091761315 0.061378504401933924
0.04251091174072979 0.017355005442062817 0.01751757160009157 0.06660192783945273 0.026228528127780773 -0.01936454186856567 -0.028279572626846838 -0.008419936830902275
-0.054398969580207485 -0.033156980445432915 0.0008727542822094082 -0.044248080800763985 -0.01675362577456991 -0.0382597979431725 -0.019828720121525298 -0.04385621023665338
-0.03545271787989264 0.0036938291641955977 -0.06727972479131637 0.005252378617661707 -0.04687991344558357 -0.020333919664266255 0.00946217937209623 0.007839835823182149
0.010836913474769547 0.008504637977676076 -0.05389509362220031 -0.004411704877637681 0.024625381018556207 0.05707899789593375 -0.04888776974261995 -1.1255586750608796e-05
0.04355425893294951 0.038804148697224 -0.05992352340496137 -0.0895667028912345 -0.011171292506967707 0.02068460001010734 -0.021040873219708035 -0.039788445475853675
-0.045766054597485784 0.04525715403322617 -0.0019438772494624625 -0.005368829203146222 0.03605620095404334 -0.009905151173488329 0.0411202931108451 -0.01578184514155916
-0.0372103617939299 -0.05987882420692733 0.044565055457752384 0.011637968625473056 0.030480535591673366 0.005372590543460708 0.03889549206183447 0.07006333467682171
00000000: f729 3a5e 7339 ab3f e32f 3d3c 2deb adbf
00000010: 405f 7a5d a3ad 9cbf 63a2 b877 2522 a43f
00000020: 351b 09ca 5ce2 aebf 6571 56e6 a5b7 8fbf
00000030: f3ba 422c 0938 a5bf c7bc 0908 6845 ad3f
00000040: b16e 5bce 957a 593f b942 ae42 e41e 8abf
00000050: 9b4e 7e58 c359 afbf 46b1 1d86 5295 9fbf
00000060: d674 d986 5775 63bf aea0 43de 51b3 a93f
00000070: 6303 a0ea 2f7c 7d3f 70bf 7f81 30c4 aebf
00000080: 21e2 f807 9927 b03f d9ce efd6 ce2e a13f
00000090: 77d3 7cfc 9274 9bbf bcb8 6a8a a0c4 76bf
000000a0: 742d 1b0d 0296 a43f 76ab 7299 01c9 a23f
000000b0: a46b 0b87 9d25 55bf 535d 2488 6c59 89bf
000000c0: 43ad ff2c 1f40 7c3f c02d b8c2 c30c b13f
000000d0: 75f3 63e9 6bf4 ae3f 48fc 1cd2 b970 793f
000000e0: 4468 b5c2 319b 40bf c431 695b 2e82 7fbf
000000f0: 3b63 b23e 36c9 98bf 0a5c b074 53de 893f
00000100: 1102 b280 cf01 90bf 011b 2439 981e 6e3f
00000110: 265d 3f69 2c42 9c3f f02c a592 7d46 9bbf
00000120: 090f 685b beb6 b9bf c3b3 3412 477c aa3f
00000130: 2eff a565 be51 983f 4d13 4b3a 6ec1 a23f
00000140: f0dd ef2e ac5c 82bf 5fe4 b339 44c7 a1bf
00000150: f478 cc95 2de4 b03f 7ddc 3825 7ccf 8fbf
00000160: d5e7 d4f4 002e 913f 5ea5 0315 98ac 703f
00000170: fec2 9146 d446 a4bf 6658 c06b 5f2b a23f
00000180: 9cd0 afcc 62b5 613f 1aff 1825 6d6c 91bf
00000190: d535 82fe 4085 b13f 7b36 cc43 7fd4 b53f
000001a0: 0b6c 3824 7334 b13f d5c7 3642 eee3 903f
000001b0: 84d0 1e09 26f9 acbf a32b 7ce1 cd8c 993f
000001c0: ee0c 5983 fc11 a2bf 02e0 2cc8 fe61 6cbf
000001d0: b32a 341b dd63 8d3f dd1f 9b52 bd7c 90bf
000001e0: 43ea 881f 5633 9a3f a995 dfdd fc23 883f
000001f0: 83fa f5ea 9248 773f 8e95 a3f3 1b06 993f
00000200: af00 7ef7 fcf9 9d3f b515 bccb bff8 91bf
00000210: 96c9 8422 2b9c 793f a77b a568 90bb a43f
00000220: 9b4a 03d8 4373 a9bf 86be fa1e d113 97bf
00000230: f1de 230a 47c4 90bf 503a ba84 e894 ab3f
00000240: 48ea 2f0a 69cf b0bf a744 a236 ba96 9fbf
00000250: b9f5 35bd 2ce7 69bf 0380 b1e3 8ea8 8e3f
00000260: 9efd f32e dc82 85bf ac8c 2d65 be30 893f
00000270: 15e5 d8f8 1749 78bf 8cfe e072 9e94 84bf
00000280: 7e03 c892 7be0 a63f a254 e302 aaf0 a0bf
00000290: 42ee 650c d976 b13f 332a 1fc1 a9f7 713f
000002a0: ecf1 3b75 b48d 95bf fc24 1c7b e848 a13f
000002b0: c0c4 639f 5992 a5bf 3058 517f 6640 873f
000002c0: 3de2 9e12 deac 76bf 16b6 7a4f 16d8 883f
000002d0: 2413 4e87 f3ea acbf 4956 4525 f14d 80bf
000002e0: 537c 9f22 fd8e 813f 94a3 bbf3 ea05 69bf
000002f0: 812e fda4 dddc a33f 2622 7315 7dbe 9b3f
00000300: 3795 6f4e 257b 923f 8ca0 3fc9 76dc 4ebf
00000310: a4c1 bb60 b16a 96bf 61d8 c070 cf79 85bf
00000320: 4647 e5cd de8e 8e3f 8852 8e35 4a25 7a3f
00000330: a234 d73d be54 92bf 4b61 edca e471 90bf
00000340: 0213 a8eb 828c b03f c25f 0b42 ec91 9ebf
00000350: 1965 c155 3432 abbf c859 7ba3 ee7f 7bbf
00000360: 6b95 5563 03a4 963f 4714 7705 0bab 9fbf
00000370: 94a1 3087 d4b1 8f3f 165d 1d47 1506 933f
00000380: 4a00 ee28 3101 8cbf 1a39 1331 af63 a13f
00000390: 176c 66f3 d40c 9ebf a12a 01b8 3b4c 90bf
000003a0: 5441 0a3d f248 80bf 5776 29ad 985d 923f
000003b0: 1ba4 84ec 1b82 a93f 7a01 9454 43ae 93bf
000003c0: 1f56 3143 e8c0 6e3f c488 1fa9 d55f b2bf
000003d0: d6dd 082b bacf b83f 3959 15e7 6dbb 893f
000003e0: 143f 96e2 35fb 533f 884b 01bb 5161 883f
000003f0: 4438 e054 8874 71bf a4c3 ce38 48f2 af3f
00000400: 7b27 308d 139b 9ebf 7330 271d 66a1 a53f
00000410: 8624 ac0e 986f 7bbf 3d8d 0f80 7340 b0bf
00000420: e58d b385 02f1 80bf 8806 f2e8 9ddc 903f
00000430: 1793 19cb c00c 763f 6cb1 58be fae9 853f
00000440: 10c6 e2bc 7cb6 7f3f a8e7 02b2 deb3 873f
00000450: 9823 310e 821f 96bf 3311 3406 4490 90bf
00000460: 361f fe63 ed17 8d3f c485 feca 701f 843f
00000470: 5ce6 2e21 849b a2bf 0b3a bc50 c1b9 853f
00000480: 29d2 43fd ddc1 a63f 8a86 22dc 5bf4 9a3f
00000490: 6a33 f3b2 b800 883f df6c 1930 5e8d a93f
000004a0: 83ef 1519 0585 9cbf b398 acd9 8530 8d3f
000004b0: c26e c08d b15f 5dbf c839 2bca 4207 a0bf
000004c0: 52ed 3861 2eb7 a0bf 849e 7d90 3f3e 993f
000004d0: 6ed4 6b59 b73e a63f 25c1 b79f 50d9 a1bf
000004e0: 7e75 0fab da33 a93f a660 ec4b fd7a a7bf
000004f0: 6897 9882 6452 95bf ee08 ff97 e3db 833f
00000500: 0063 b5d3 4fa8 943f 2745 7d76 b3e0 8fbf
00000510: b58d 086d 5afa a63f d777 e7b2 4c34 8fbf
00000520: 5c21 6b36 581a 93bf 397a 86a1 a15e a23f
00000530: 8930 2263 6f30 a8bf 5f5f b219 ed54 70bf
00000540: 9f62 a61f a493 89bf 219f 4736 6595 6dbf
00000550: d698 26bc 8768 b1bf b18b 6e8b 0db5 a43f
00000560: 5960 83d3 014c 7a3f c300 dcb9 711f a43f
00000570: 700c d8c1 3b06 86bf 1135 f012 08f6 d43e
00000580: b214 55b0 549c 763f df4a 716c 970d a53f
00000590: 7c10 825b 5842 963f 4bdd d0f6 ed43 923f
000005a0: 03d0 36d4 ff36 a3bf ac84 e9fc 2738 973f
000005b0: 8b97 50b3 ea9c a03f 4744 a797 a002 7f3f
000005c0: cff5 ee71 678b a03f 079a 7f9c 106f 923f
000005d0: c658 2cd1 dc4c 92bf 5743 f0fa f035 8f3f
000005e0: 444f 53c5 a43d 8ebf fb97 985a 8dfd adbf
000005f0: 07d9 e48c 3776 b63f d92f f6cd badc 95bf
00000600: b0af 8b69 0069 a3bf d9f4 814d 5da3 863f
00000610: 90f3 5df6 fac2 883f 7e4a 1a98 a938 773f
00000620: e893 1848 f68d 843f d936 33f8 a5ce 8b3f
00000630: 0ff1 8181 9287 3dbf 7fda 2ada 006d af3f
00000640: 5795 4c7f fdc3 a53f c2a7 2eb3 82c5 913f
00000650: 18cc 8254 20f0 913f c0c6 ebed d20c b13f
00000660: 84c7 1fba a6db 9a3f 2e2c 1c68 4cd4 93bf
00000670: 1304 4ffe 51f5 9cbf 4dbb 95ca 783e 81bf
00000680: 2cf1 9086 2eda abbf d063 4ba5 f3f9 a0bf
00000690: 5d82 bd8c 3199 4c3f 896c e637 afa7 a6bf
000006a0: 7230 2acb dc27 91bf c4c1 d5c9 c996 a3bf
000006b0: cc21 c6e1 fa4d 94bf 49c7 6239 5274 a6bf
000006c0: 7a68 b2cf db26 a2bf 21a3 a16e 8542 6e3f
000006d0: 1f9f a979 3e39 b1bf 069e 39a6 8483 753f
000006e0: 691a 2dde a400 a8bf c77e d43f 6ad2 94bf
000006f0: b0c6 9d37 e860 833f 7f8c bbf3 540e 803f
00000700: 38b1 b5e7 a931 863f 79d7 d32f e16a 813f
00000710: ea5e 0b41 2398 abbf a975 b402 0212 72bf
00000720: 8e44 8158 6537 993f 12c3 805a 7539 ad3f
00000730: ba17 7058 d107 a9bf 92c1 4f10 cc9a e7be
00000740: b0e3 6f6b be4c a63f ea17 352b 23de a33f
00000750: e71f 92ca 4bae aebf 7a78 baeb d7ed b6bf
00000760: 4a95 c57f f9e0 86bf cb08 4c02 582e 953f
00000770: bd84 6e19 bd8b 95bf 3daa 27b0 265f a4bf
00000780: d8bb 86f7 a56e a7bf d129 f718 f22b a73f
00000790: 8634 b04d 36d9 5fbf 2a71 861d a0fd 75bf
000007a0: 2acc d457 f575 a23f 3c09 d1e2 2649 84bf
000007b0: f2dc 3914 b80d a53f 2d9e 03b3 1d29 90bf
000007c0: 015b f48d 3c0d a3bf ab24 62ef 6fa8 aebf
000007d0: e48f 781f 3bd1 a63f fd32 1bb5 a5d5 873f
000007e0: 548a 1f1e 4a36 9f3f e507 ddca 9101 763f
000007f0: ba1c bc24 1cea a33f 4aed 15b3 abef b13f

b3 f8 [1, 100]
-0.014196121209427192 -0.0007079747867634778 0.008436883433339626 -0.09147779494586544 -0.030446255403621125 -0.0478939355171498 0.020303681040286053 -0.026571841108344225
0.04168587947639413 0.03427133908357884 -0.006894704575787913 -0.0048866776610981865 -0.03313823088140023 0.03021345969215755 -0.02845472870229298 -0.030554101034797075
-0.047785077127665346 0.0019436724715701642 -0.06327705114890848 0.014203993862686606 -0.0072672020585273205 -0.02249042169915462 -0.002602571494096158 0.023738413546612262
0.021406237769063283 -0.04880932476449813 0.037191097637535475 -0.014561642921765802 0.030906704028559325 -0.01865070108487423 0.014816690079491065 0.04550348161334748
-0.04637781759729469 0.016168829291209417 0.029892284995135875 0.06656640528739094 -0.015743407412932568 0.027909741357355272 0.08219876847160834 -0.026078148948141217
-0.029866606895280333 0.030259178763020297 -0.05306635593428375 0.038748513196546076 0.03098864423103956 -0.033382594338511894 0.008998560370135616 -0.06477688801748203
-0.011146989141412647 -0.02995045802099494 0.00863065997103217 0.013338182489126226 -0.0007506776451372117 -0.07182222125052767 0.026221904581287182 -0.027295826549720906
0.02458093688566157 -0.011004444530077541 0.03137073886780103 -0.06505466962588739 0.009922429139233729 0.0019468531145594966 -0.023822719114614817 0.0030746037338621355
0.019004178762776738 0.031589986803254234 -0.0009348121493143821 -0.04498800738836609 0.0045226326513647715 0.009287518391954632 -0.010786380809434464 0.027191390688259206
-0.0032840555395915088 -0.046945628996216834 0.02220631007083307 0.061579280873384705 -0.021444113248415938 -0.01462773229475738 0.029089661148553127 0.038725882978057846
0.007057282853068222 -0.009310483354691564 -0.02134441887414801 0.024810845066104117 0.037896897988149755 -0.005252928912752345 0.015126296935886673 -0.012215055797569943
-0.025536411365090685 -0.0052361499640280465 -0.011701372361955622 -0.05122223316062133 0.012047381065223834 0.03350041191846397 0.0023830094755928812 0.03356240796485109
-0.06839307516756073 -0.016866623577908645 -0.016771009584448836 0.029864971986018205
00000000: 59a9 9822 db12 8dbf a4fd 1b47 ec32 47bf
00000010: 532e 6953 5b47 813f a449 9ab9 166b b7bf
00000020: c313 fa9c 4d2d 9fbf cd1e 72cd 8d85 a8bf
00000030: 6bcc 39f8 7cca 943f c529 3812 a635 9bbf
00000040: 80ba 1c02 da57 a53f b3b2 1b51 038c a13f
00000050: 198c b22a 9f3d 7cbf 8521 d98b 0d04 74bf
00000060: f10c c483 7ef7 a0bf 9079 1bf5 46f0 9e3f
00000070: ce87 c584 3c23 9dbf 2602 d002 9349 9fbf
00000080: 0215 001f 4977 a8bf bb16 c56c 5ad8 5f3f
00000090: 019a 45c1 ec32 b0bf 1b10 e7c8 fb16 8d3f
000000a0: bef9 cbb2 36c4 7dbf 8439 afa6 ba07 97bf
000000b0: 1011 7cee fc51 65bf 6ed2 5df7 e14e 983f
000000c0: 6917 984c 84eb 953f eaeb 342b 89fd a8bf
000000d0: 1072 1c28 b60a a33f 5807 00a1 7ed2 8dbf
000000e0: 7f87 1ecc 01a6 9f3f 86f9 d35c 2b19 93bf
000000f0: 0b6e 9c7a 3658 8e3f 7e55 c47a 3b4c a73f
00000100: 2633 ae53 d5be a7bf f9d6 14c4 8f8e 903f
00000110: a6c8 d349 159c 9e3f 74bc b8f5 7e0a b13f
00000120: 4156 dd2f 0a1f 90bf 0888 7a09 5f94 9c3f
00000130: 9066 5b7e fa0a b53f 456c 7df3 3ab4 9abf
00000140: 664d 6e0f 5a95 9ebf dc92 c31c 43fc 9e3f
00000150: cde3 826e 832b abbf b544 e559 d8d6 a33f
00000160: a92a 14b6 7cbb 9f3f d30b e1fd 8517 a1bf
00000170: d6aa 0154 d66d 823f 875d 92d7 3795 b0bf
00000180: 7b68 7d8e 3bd4 86bf 2034 cd36 55ab 9ebf
00000190: f83e 8c92 f3ac 813f 468a a18c 0c51 8b3f
000001a0: 771a c5f7 2399 48bf dca7 65eb f062 b2bf
000001b0: 6a3b 763a ead9 9a3f 31b3 64e9 6ff3 9bbf
000001c0: c8a6 1dc0 be2b 993f 414a f08a 7f89 86bf
000001d0: bb24 fa52 d30f a03f 13ca 7e3e 6ca7 b0bf
000001e0: 96f7 32e5 3552 843f f4ec 419d b1e5 5f3f
000001f0: d20a ff9d fb64 98bf e6ea 854f e92f 693f
00000200: e706 18d9 d475 933f d5ef 6610 902c a03f
00000210: 4f8d facd c5a1 4ebf 55f6 e308 ab08 a7bf
00000220: 065c 45f5 5286 723f c119 099e 5505 833f
00000230: a9be 8c86 2b17 86bf 6f90 f456 0fd8 9b3f
00000240: aa60 81e4 29e7 6abf 7632 75ea 4109 a8bf
00000250: 6085 133e 40bd 963f cfbd ecca 5187 af3f
00000260: 2fea 5f14 72f5 95bf 5aa4 90fe 24f5 8dbf
00000270: 7797 231d aec9 9d3f d888 cc01 e1d3 a33f
00000280: 3c3e d7f0 18e8 7c3f 1196 25ec 5f11 83bf
00000290: 31fd 10b4 4fdb 95bf 6785 94a0 0368 993f
000002a0: 1e39 f5e2 3867 a33f 2a3b 375e 1884 75bf
000002b0: 5999 3135 89fa 8e3f e8e2 5a09 3504 89bf
000002c0: 875a ae8e 3726 9abf bfa4 a34d 8072 75bf
000002d0: 6141 e79c e3f6 87bf 5c83 81f0 cc39 aabf
000002e0: 37b2 6b1d 4cac 883f 0f46 2f4b f726 a13f
000002f0: ec78 7078 8885 633f fe07 2b89 172f a13f
00000300: 4d17 1e65 3582 b1bf f3ec a4f2 7b45 91bf
00000310: b393 be66 6b2c 91bf 7953 e757 ec94 9e3f
