HW02/weights/model.pth (torch, 169519 bytes, 14 tensors)

encoder.conv1.weight f4 [64, 3, 3, 3]
-0.14939834 -0.10826325 0.04641837 -0.13207169 0.2304883 0.24650273 -0.08515235 -0.00023654503
0.090179704 0.09776033 -0.26320413 -0.13817993 -0.022479897 0.091647476 -0.0761771 0.015303748
0.15506943 0.15915188 0.06982139 0.31641975 0.04554899 -0.12762013 -0.07252095 -0.16532585
-0.01017854 -0.054561622 0.10077563 -0.21889794 -0.23005213 0.1080603 -0.22912578 0.07866152
0.067549646 -0.21051992 -0.017899936 0.08164986 -0.06985563 0.06516682 -0.062839046 0.17229828
-0.076321274 -0.104318686 0.09294465 0.039124418 0.1910031 0.23237261 0.19959153 0.09558216
0.0795014 0.043877695 0.17689227 0.117591575 0.2175447 -0.09830941 -0.060138877 -0.1351166
0.11580201 -0.0304675 0.041001737 -0.200955 0.015813826 -0.0067606643 0.08565592 -0.06254038
0.13355306 -0.0074541313 0.049719244 0.112737976 -0.27669123 0.088123485 -0.18435223 -0.091839194
-0.12928389 0.09123584 -0.18780923 -0.15714458 0.26184338 0.3322488 -0.07707382 -0.17605287
-0.07299917 0.045506388 0.022815926 0.22174406 -0.20164365 0.21279387 0.300183 0.05237856
0.23243383 0.16369586 -0.0443659 -0.122303575 0.12011922 -0.087677866 -0.21981278 -0.16541904
-0.13350484 -0.07807583 -0.08035444 -0.0060812645 0.013870517 0.11006923 0.08218854 0.05543627
0.11865189 -0.078523934 -0.10940901 -0.006621316 0.06553618 -0.023061626 0.1276311 0.34833992
0.024418918 -0.02702958 0.069817126 0.20001048 0.2538494 -0.18253599 0.049188785 0.02755591
-0.090905525 -0.011473388 -0.020820288 0.04543561 0.06909175 -0.18679821 -0.13213137 0.056552205
0.18565732 -0.27493665 -0.17977978 0.19646823 -0.097690076 -0.056493282 -0.19632202 -0.16160388
0.18708429 0.037869245 -0.08483673 0.022024076 0.1205466 -0.034745928 -0.14238527 -0.051057227
0.21267362 -0.13585605 -0.12766358 0.010652087 0.13895662 -0.28752047 -0.017977552 0.05576927
-0.03628204 0.030628532 -0.18671502 -0.16322145 -0.25265104 -0.065268576 0.20487604 0.019107113
0.35523272 0.044190764 0.17115651 0.080855235 0.10688821 0.2552126 -0.011787944 -0.012712458
0.0036008423 0.17707758 -0.04656349 -0.25021532 -0.10286217 -0.012416346 -0.14811268 -0.1745336
-0.24313264 0.07117388 0.13567707 -0.06974583 0.12382157 0.047209952 0.0761878 -0.06524807
0.039476424 -0.09044475 -0.15182814 -0.09424554 0.11636134 -0.18066064 -0.296726 -0.17937066
-0.15678878 -0.1913376 0.087456316 -0.21146032 -0.019709677 -0.030866824 0.06572096 -0.13998416
-0.012290686 -0.127401 -0.15088774 -0.13784026 -0.13132904 -0.2741179 -0.011256461 0.109273866
-0.060631905 0.115363225 0.097945385 0.07018924 0.15714514 0.05260582 -0.021901717 0.17236634
0.121425115 0.1670806 0.15896198 -0.03156994 -0.061694268 0.017519416 0.171784 0.11195516
0.17471589 0.09311201 -0.0710603 -0.24001808 0.066789106 0.11785256 0.0024097662 -0.025253909
0.11796889 -0.12754588 0.09766891 -0.16587485 0.059049964 0.055952854 -0.05552906 -0.009787659
-0.0773362 0.14489347 -0.10391419 0.026219752 0.13159133 -0.023264151 0.07762517 -0.07826653
-0.0989375 0.046930164 -0.05082473 0.026112234 -0.20009726 -0.129082 0.023022555 0.18697166
00000000: e1fb 18be 1fb9 ddbd 3021 3e3d cd3d 07be
00000010: 2005 6c3e 366b 7c3e 5b64 aebd 1309 78b9
00000020: 23b0 b83d 9136 c83d b1c2 86be 0a7f 0dbe
00000030: c327 b8bc acb1 bb3d bd02 9cbd 92bc 7a3c
00000040: 85ca 1e3e b6f8 223e 84fe 8e3d c501 a23e
00000050: 9491 3a3d daae 02be dd85 94bd 2e4b 29be
00000060: e4c3 26bc 027c 5fbd 7463 ce3d c826 60be
00000070: c992 6bbe b84e dd3d f39f 6abe 4a19 a13d
00000080: 7857 8a3d 8992 57be e3a2 92bc 0b38 a73d
00000090: 7810 8fbd 2f76 853d c2b1 80bd f66e 303e
000000a0: 544e 9cbd 09a5 d5bd c459 be3d ed40 203d
000000b0: 5196 433e 16f3 6d3e b961 4c3e 94c0 c33d
000000c0: a1d1 a23d 19b9 333d 3f23 353e dad3 f03d
000000d0: 0ac4 5e3e 7256 c9bd 2f54 76bd 025c 0abe
000000e0: 9b29 ed3d fb96 f9bc 70f1 273d 26c7 4dbe
000000f0: ff8b 813c 9088 ddbb 5f6c af3d 2c15 80bd
00000100: 22c2 083e c941 f4bb 68a6 4b3d 2be3 e63d
00000110: 79aa 8dbe 167a b43d d5c6 3cbe 3016 bcbd
00000120: ff62 04be dbd9 ba3d 1051 40be 82ea 20be
00000130: 5610 863e 841c aa3e e1d8 9dbd 3447 34be
00000140: 9780 95bd e864 3a3d 77e8 ba3c e010 633e
00000150: ac7b 4ebe a3e6 593e 96b1 993e e78a 563d
00000160: 2203 6e3e e39f 273e 05b9 35bd 4c7a fabd
00000170: 1101 f63d 7490 b3bd 9a16 61be 9c63 29be
00000180: 7eb5 08be 39e6 9fbd de90 a4bd 5845 c7bb
00000190: 2a41 633c fa6b e13d 7752 a83d 2411 633d
000001a0: c3ff f23d 28d1 a0bd d511 e0bd a0f7 d8bb
000001b0: d537 863d bceb bcbc bab1 023e 9c59 b23e
000001c0: 2f0a c83c 236d ddbc 48fc 8e3d 8ccf 4c3e
000001d0: 8cf8 813e b7ea 3abe 2e7a 493d efbc e13c
000001e0: ad2c babd e1fa 3bbc 4f8f aabc b11a 3a3d
000001f0: fa7f 8d3d 0848 3fbe 724d 07be 49a3 673d
00000200: f41c 3e3e 7fc4 8cbe 3118 38be f82e 493e
00000210: bc11 c8bd 8065 67bd a408 49be 7d7b 25be
00000220: 0693 3f3e c81c 1b3d e1be adbd d66b b43c
00000230: 23e1 f63d bf51 0ebd 72cd 11be 6221 51bd
00000240: 1dc7 593e d91d 0bbe 3eba 02be 1786 2e3c
00000250: a54a 0e3e e235 93be a945 93bc 516e 643d
00000260: 7a9c 14bd b0e8 fa3c 3932 3fbe 8623 27be
00000270: 7a5b 81be 88ab 85bd 06cb 513e 8586 9c3c
00000280: 10e1 b53e 6001 353d a743 2f3e 6e97 a53d
00000290: 35e8 da3d 3aab 823e 3822 41bc ea47 50bc
000002a0: 1cfc 6b3b d353 353e 5cb9 3ebd 391c 80be
000002b0: 67a9 d2bd ee6d 4bbc daaa 17be f0b8 32be
000002c0: c3f7 78be 9cc3 913d eeee 0a3e e7d6 8ebd
000002d0: 2a96 fd3d 395f 413d 5908 9c3d c8a0 85bd
000002e0: 08b2 213d 193b b9bd d678 1bbe ce03 c1bd
000002f0: db4e ee3d 1aff 38be 78ec 97be f1ac 37be
00000300: 3d8d 20be 01ee 43be 4c1c b33d 0e89 58be
00000310: 3076 a1bc 6cdc fcbc b698 863d 0258 0fbe
00000320: e05e 49bc 6875 02be 5182 1abe ff25 0dbe
00000330: 1f7b 06be 2e59 8cbe 056d 38bc faca df3d
00000340: 2959 78bd 8e43 ec3d 9797 c83d 60bf 8f3d
00000350: a8ea 203e 3379 573d 3b6b b3bc cd80 303e
00000360: bbad f83d 2d17 2b3e eec6 223e 7b4f 01bd
00000370: 21b3 7cbd e184 8f3c 25e8 2f3e bf48 e53d
00000380: b9e8 323e 82b1 be3d 1088 91bd 4dc7 75be
00000390: bac8 883d af5c f13d 2bed 1d3b 49e1 cebc
000003a0: ac99 f13d 639b 02be a306 c83d 19db 29be
000003b0: 60de 713d d22e 653d 7172 63bd 6b5c 20bc
000003c0: 7162 9ebd f45e 143e f6d0 d4bd ceca d63c
000003d0: e1bf 063e 7694 bebc f2f9 9e3d 344a a0bd
000003e0: be9f cabd d839 403d 982d 50bd 53e9 d53c
000003f0: 4ce6 4cbe 122e 04be cc99 bc3c 8075 3f3e

encoder.conv1.bias f4 [64]
-0.11329744 0.23523341 0.052860547 0.11962389 -0.13532914 0.111052595 0.1101804 -0.24737352
0.18972048 -0.13570377 -0.011178421 -0.060849726 -0.2772039 0.030099919 0.19292115 0.076558925
-0.24311078 -0.103818096 -0.25394812 0.043765448 -0.10511818 0.0689539 0.12626196 0.05678647
-0.090539075 0.23319459 -0.2193496 -0.04935839 0.23133583 0.0511948 0.042599324 0.076625235
0.093780525 -0.17865549 -0.13742732 0.12581505 -0.00434347 0.13782701 -0.09509926 0.07350259
0.023199365 0.15485807 0.21516159 -0.061735645 0.117904164 0.09165712 -0.07470422 -0.05626855
0.19392489 0.032495275 0.11929625 0.0475718 -0.07843712 0.10437196 0.09021716 0.24692428
-0.078641206 -0.12308199 0.18998222 0.025082482 -0.058873072 0.12145357 -0.05519464 -0.04509826
00000000: 7d08 e8bd 07e1 703e 4d84 583d 5ffd f43d
00000010: b993 0abe 8b6f e33d 43a6 e13d 7c4f 7dbe
00000020: 1646 423e eef5 0abe b225 37bc 903d 79bd
00000030: abed 8dbe 1b94 f63c 1f8d 453e edca 9c3d
00000040: 08f2 78be 959e d4bd 7d05 82be 6643 333d
00000050: 3348 d7bd b437 8d3d d14a 013e ee98 683d
00000060: 8d6c b9bd 90ca 6e3e 2e9d 60be 062c 4abd
00000070: 4de3 6c3e a3b1 513d a17c 2e3d b1ed 9c3d
00000080: 0110 c03d 77f1 36be bfb9 0cbe a9d5 003e
00000090: ab53 8ebb 8622 0d3e 67c3 c2bd 8788 963d
000000a0: 980c be3c 1d93 1e3e 5253 5c3e 84de 7cbd
000000b0: bd77 f13d bab6 bb3d 87fe 98bd da79 66bd
000000c0: 3f94 463e c419 053d 9851 f43d a6da 423d
000000d0: a4a3 a0bd f7c0 d53d c6c3 b83d b8d9 7c3e
000000e0: a40e a1bd 6912 fcbd b38a 423e c779 cd3c
000000f0: e424 71bd a6bc f83d c613 62bd f4b8 38bd

encoder.bn1.weight f4 [64]
1.1297021 0.91361773 1.1595479 1.0166613 0.9600153 1.1032743 0.97567177 0.82677543
0.92618763 1.0520576 0.93935466 1.018408 0.8500349 1.3859142 0.97613376 0.9799173
0.94209665 1.0908343 1.0164815 1.038453 1.0339116 0.94410574 1.0494647 1.0922363
1.0611917 0.9522273 0.92362285 0.97714865 0.9343022 0.92290086 1.0968022 1.0020434
0.90692884 0.79733187 0.9579432 1.0462497 1.2310641 0.93663096 1.0656008 1.0582987
0.93039066 0.97359204 1.0243648 0.9971409 0.9549251 1.0611393 1.0064747 1.0192233
1.0063927 1.0420016 0.8760369 1.0632198 1.0319643 1.0654838 0.896771 0.9191817
1.0655718 1.0469215 0.9791741 0.93498856 0.97815526 1.1216896 0.9069123 0.961356
00000000: 149a 903f dae2 693f 116c 943f f521 823f
00000010: 90c3 753f 1838 8d3f a0c5 793f 8ea7 533f
00000020: a21a 6d3f d3a9 863f 8c79 703f 315b 823f
00000030: e39b 593f a365 b13f e7e3 793f dcdb 7a3f
00000040: 3f2d 713f 75a0 8b3f 111c 823f 07ec 843f
00000050: 3757 843f eab0 713f dc54 863f 66ce 8b3f
00000060: 21d5 873f 2bc5 733f 8c72 6c3f 6a26 7a3f
00000070: 6e2e 6f3f 3b43 6c3f 0464 8c3f f542 803f
00000080: 7d2c 683f f11d 4c3f c43b 753f 83eb 853f
00000090: 8293 9d3f 0cc7 6f3f 9b65 883f 5576 873f
000000a0: 152e 6e3f 543d 793f 631e 833f a044 7f3f
000000b0: f975 743f 6ad3 873f 2ad4 803f e975 823f
000000c0: 7ad1 803f 4f60 853f f443 603f 9617 883f
000000d0: 6817 843f c661 883f c992 653f 7e4f 6b3f
000000e0: a864 883f 8601 863f 27ab 7a3f 695b 6f3f
000000f0: 6268 7a3f 8693 8f3f 682b 683f 6d1b 763f

encoder.bn1.bias f4 [64]
0.00445151 -0.040758975 0.008706192 -0.09690088 0.15869929 0.049754273 -0.13126664 -0.06746499
0.024054023 0.10946461 0.18257594 0.093447715 -0.0418072 -0.05070309 0.0558122 -0.065533094
0.0633197 0.17269506 0.07918139 0.11976555 -0.12734318 0.02453141 0.031215832 0.1297297
0.12229863 -0.00026724522 -0.002564868 -0.15227382 0.10755602 0.022430656 0.1207651 -0.113601774
-0.013505716 -0.1194895 -0.043743808 0.07141343 -0.021642301 -0.13005365 -0.023124091 -0.046557385
0.037459735 0.11849658 0.13754463 -0.08626964 -0.052478783 0.10519962 -0.017953664 0.15574536
0.10830274 0.08297487 -0.04981393 0.17058259 -0.035056956 0.10568615 -0.022659294 -0.05630936
0.08649141 0.13363549 -0.1535608 0.05934437 0.028450632 0.2041107 -0.007847869 0.0027247116
00000000: f9dd 913b e2f2 26bd 6aa4 0e3c f873 c6bd
00000010: 1182 223e 23cb 4b3d c36a 06be 162b 8abd
00000020: f10c c53c fb2e e03d 30f5 3a3e 8461 bf3d
00000030: 073e 2bbd 0bae 4fbd 559b 643d 3736 86bd
00000040: c2ad 813d f9d6 303e da29 a23d a447 f53d
00000050: 4066 02be 18f6 c83c 58b8 ff3c ddd7 043e
00000060: b477 fa3d 0c1d 8cb9 5817 28bb abed 1bbe
00000070: 5546 dc3d 7fc0 b73c b153 f73d 0ca8 e8bd
00000080: 1447 5dbc e9b6 f4bd b52c 33bd 3441 923d
00000090: 324b b1bc c92c 05be bc6e bdbc f5b2 3ebd
000000a0: 616f 193d 56ae f23d 80d8 0c3e 23ae b0bd
000000b0: fef3 56bd e672 d73d 9013 93bc b67b 1f3e
000000c0: d4cd dd3d bbee a93d b109 4cbd 34ad 2e3e
000000d0: e297 0fbd fb71 d83d fc9f b9bc a5a4 66bd
000000e0: 6922 b13d bed7 083e 0b3f 1dbe 1513 733d
000000f0: 4d11 e93c 6502 513e 5994 00bc 1391 323b

encoder.bn1.running_mean f4 [64]
0.08151688 0.51598907 0.054422166 0.19918522 0.122339815 0.09725906 0.13707314 0.011672627
0.28979796 0.040737893 0.30312303 0.11098801 0.011733036 0.11969947 0.36611956 0.11002344
0.03159552 0.14934647 0.06537621 0.22330196 0.120320424 0.30970833 0.10969806 0.07948989
0.2683417 0.27251223 7.1217414e-08 0.781127 0.30305445 0.6023137 0.13275437 0.0959891
0.38130006 0.05058142 0.07058757 0.19373065 0.048120912 0.15999192 0.11736163 0.0675358
0.26848534 0.46912363 0.27978173 0.045608327 0.24187921 0.28686193 0.046824984 0.062407807
0.35837325 0.4657164 0.1165121 0.15838417 0.06643862 0.28398955 0.6516535 0.30892128
0.102834605 0.3182424 0.061259653 0.020934565 0.104392685 0.20131372 0.040413167 0.14302108
00000000: 52f2 a63d dc17 043f c7e9 5e3d 36f7 4b3e
00000010: 4c8d fa3d c22f c73d e75c 0c3e 8c3e 3f3c
00000020: 6660 943e c7dc 263d f132 9b3e af4d e33d
00000030: eb3b 403c ff24 f53d 0674 bb3e f853 e13d
00000040: 4e6a 013d 48ee 183e f6e3 853d 45a9 643e
00000050: 8e6a f63d 1792 9e3e 60a9 e03d 98cb a23d
00000060: 1564 893e b986 8b3e 30f0 9833 f0f7 473f
00000070: f429 9b3e 3b31 1a3f c3f0 073e ef95 c43d
00000080: c339 c33e 772e 4f3d 3790 903d 5461 463e
00000090: 6f1a 453d ecd4 233e 4b5b f03d 3650 8a3d
000000a0: e976 893e f930 f03e 8d3f 8f3e cccf 3a3d
000000b0: 2faf 773e 91df 923e 8ecb 3f3d 549f 7f3d
000000c0: b37c b73e 6172 ee3e e59d ee3d 762f 223e
000000d0: f910 883d 1467 913e c4d2 263f ee2a 9e3e
000000e0: f39a d23d abf0 a23e 67eb 7a3d f77e ab3c
000000f0: d5cb d53d 2f25 4e3e 4788 253d 1e74 123e

encoder.bn1.running_var f4 [64]
0.025321754 0.11752495 0.018180763 0.14107653 0.070154004 0.030279541 0.07049945 0.004471432
0.077136435 0.0075659566 0.060704328 0.025004808 0.0042487215 0.038210597 0.06532998 0.037619784
0.008074703 0.040793076 0.026323222 0.049240787 0.051465344 0.10818748 0.033300478 0.02860667
0.06619657 0.09094547 0.00019663574 0.18313892 0.058036685 0.13010864 0.07323058 0.04609982
0.066246316 0.025341442 0.021560436 0.061838765 0.012474978 0.040834613 0.026856689 0.024207314
0.039628014 0.077418715 0.1118852 0.012725935 0.08245594 0.06939404 0.015085418 0.016082045
0.08477524 0.10825828 0.050746415 0.02892874 0.025750177 0.055112515 0.12464925 0.046312924
0.027833914 0.09688818 0.02416641 0.0061383424 0.05500841 0.039521545 0.013011415 0.073210426
00000000: 916f cf3c ecb0 f03d d3ef 943c 5e76 103e
00000010: e7ac 8f3d cd0c f83c 0462 903d 1785 923b
00000020: b5f9 9d3d d8eb f73b 1aa5 783d e2d6 cc3c
00000030: dc38 8b3b b782 1c3d b9cb 853d 3417 1a3d
00000040: c24b 043c a416 273d cca3 d73c b5b0 493d
00000050: 53cd 523d 6691 dd3d 1566 083d 8958 ea3c
00000060: 1192 873d 9e41 ba3d 0130 4e39 c588 3b3e
00000070: e0b7 6d3d 333b 053e eaf9 953d 2ad3 3c3d
00000080: 26ac 873d db98 cf3c 839f b03c a54a 7d3d
00000090: da63 4c3c 3242 273d 8f02 dc3c 6b4e c63c
000000a0: fc50 223d b48d 9e3d 1124 e53d 7180 503c
000000b0: a9de a83d 761e 8e3d d428 773c 7ebe 833c
000000c0: a49e ad3d 84b6 dd3d 79db 4f3d f7fb ec3c
000000d0: 09f2 d23c a9bd 613d 1b48 ff3d 9fb2 3d3d
000000e0: f303 e43c 4f6d c63d a3f8 c53c 2624 c93b
000000f0: 8050 613d 58e1 213d d42d 553c 59ef 953d

decoder.deconv1.weight f4 [64, 64, 3, 3]
-0.006643856 -0.08966493 -0.07018528 -0.024249911 -0.07991199 -0.06003317 0.122930564 -0.10753846
-0.02324163 -0.065029114 0.060466636 0.05826243 -0.0036840264 0.0014881208 0.0876843 -0.08924447
-0.007842345 -0.022479204 0.12653354 -0.034682777 -0.009592695 -0.0727926 -0.04226475 0.007969629
0.005514948 0.0256057 0.044567727 0.2905728 -0.22195686 -0.023058247 -0.067611635 -0.061120793
-0.07457476 0.04066171 -0.014802082 -0.031964637 -0.09062443 0.013125371 -0.09488464 0.09102986
-0.095364526 -0.09524166 0.046720237 -0.020795794 -0.06457604 -0.01248734 0.1060481 -0.0669708
0.045841895 0.059916228 -0.12039545 0.070164375 -0.006196035 0.012135769 -0.034741182 0.064627655
0.08646229 0.046189945 0.043133542 0.035565 0.026234372 0.021034215 0.090097725 -0.098134615
0.060691606 0.030683037 0.04143551 0.07078704 0.093169406 -0.1330048 0.0495568 0.07942519
-0.023161082 -0.053473502 0.08537495 0.03150912 0.07334799 0.046621554 0.079055004 0.019764466
0.08827076 -0.10478205 0.02911314 0.059362233 -0.09649266 0.04296647 0.037996482 -0.10250253
0.10207338 0.08070305 0.06519228 -0.038529433 -0.03644976 0.010652629 -0.03195169 -0.04737116
0.049068384 -0.009519657 -0.02816815 -0.07650919 -0.057866607 -0.029657727 -0.039393485 -0.08618387
-0.050593205 -0.07938326 -0.05590115 -0.020070985 0.06194424 0.043212373 -0.04850219 -0.13318957
0.023076879 -0.17954178 0.027589321 0.07622858 0.10344674 -0.07991736 0.024775894 -0.0023047195
-0.062039766 -0.0793257 0.07743105 -0.09413259 -0.02400076 0.025887249 0.049998406 0.03623424
0.036096446 -0.01039651 -0.00013746481 0.025320241 -0.044523295 0.03730289 0.038754866 -0.023830183
0.019011777 0.024321187 -0.14960109 0.018593999 0.0063125864 -0.04402225 0.08532554 0.08873885
-0.022303157 0.11581849 -0.04098652 0.08359231 -0.084074944 -0.040960632 -0.00033864295 -0.008575724
-0.04825235 0.064178206 0.15833628 -0.040998593 0.0016112982 -0.01975248 -0.023583448 0.0012109573
-0.039872076 0.17385103 0.13154788 -0.04921076 -0.027864877 -0.0003872658 -0.089197405 -0.068192646
0.11440265 -0.06595933 -0.084165625 0.041487165 -0.056360025 -0.10380259 -0.07755386 -0.031974617
-0.07725116 0.04313827 -0.073334 -0.068146855 0.07138657 -0.0775081 -0.060036425 0.11530681
-0.035601795 -0.056941792 0.12161955 -0.092673294 -0.016566707 -0.053452957 -0.07177046 -0.036759023
0.050500628 -0.001411664 -0.012505549 0.11693076 -0.11095431 -0.042965993 -0.039783068 0.06952403
0.045613386 0.0765203 0.08177277 0.09689863 -0.09381497 0.08962142 0.034957934 -0.10661952
-0.010327059 0.04850189 -0.012520121 0.06941913 0.0031577356 -0.054233056 0.029652974 0.049504593
-0.009727124 -0.011161689 0.06668879 -0.06828746 -0.08662342 -0.17424738 0.1513135 -0.06102338
-0.019611968 -0.00039526302 0.031349663 -0.17522322 -0.04947446 0.1587662 -0.045116223 -0.019357016
-0.03999102 0.057780568 0.047856715 -0.07372159 0.073941536 0.07490779 0.04076633 0.034236077
-0.057199284 0.102619536 0.12931493 0.0389669 -0.12556623 -0.0143709 0.031080602 -0.036087982
0.009234481 -0.050112344 -0.066320404 -0.07570284 -0.10918679 0.018898867 0.071732655 0.076381706
00000000: b4b4 d9bb 3fa2 b7bd 4dbd 8fbd c0a7 c6bc
00000010: e6a8 a3bd 57e5 75bd 05c3 fb3d 203d dcbd
00000020: 3b65 bebc fc2d 85bd ddab 773d 96a4 6e3d
00000030: b56f 71bb 0c0d c33a d493 b33d cec5 b6bd
00000040: 2e7d 00bc 4f26 b8bc 0292 013e 870f 0ebd
00000050: ae2a 1dbc 4914 95bd cd1d 2dbd 0c93 023c
00000060: bdb6 b43b 0cc3 d13c a68c 363d f5c5 943e
00000070: a948 63be a6e4 bcbc f877 8abd cc59 7abd
00000080: a7ba 98bd e58c 263d 6f84 72bc 5aed 02bd
00000090: 4d99 b9bd cc0b 573c e152 c2bd dd6d ba3d
000000a0: 7a4e c3bd 0f0e c3bd b85d 3f3d f15b aabc
000000b0: 7140 84bd b397 4cbc bf2f d93d fd27 89bd
000000c0: b6c4 3b3d b86a 753d e491 f6bd 57b2 8f3d
000000d0: 1c08 cbbb 1bd5 463c c54c 0ebd 815b 843d
000000e0: 2413 b13d ab31 3d3d ccac 303d 9bac 113d
000000f0: 77e9 d63c f24f ac3c 2885 b83d cdfa c8bd
00000100: c397 783d fe5a fb3c 48b8 293d ccf8 903d
00000110: 9acf be3d 6932 08be 12fc 4a3d ada9 a23d
00000120: 4fbc bdbc 0807 5bbd 10d9 ae3d b50f 013d
00000130: 7937 963d 3ef6 3e3d 97e7 a13d 17e9 a13c
00000140: 4dc7 b43d f997 d6bd ae7e ee3c d025 733d
00000150: f29d c5bd 9cfd 2f3d 33a2 1b3d d9ec d1bd
00000160: d90b d13d a447 a53d 8883 853d 0ad1 1dbd
00000170: 584c 15bd 5d88 2e3c c6df 02bd 4308 42bd
00000180: eefb 483d 56f8 1bbc e4c0 e6bc dab0 9cbd
00000190: 8905 6dbd c3f4 f2bc 105b 21bd 2b81 b0bd
000001a0: d23a 4fbd b193 a2bd 9bf8 64bd e86b a4bc
000001b0: 3eb9 7d3d 75ff 303d 3baa 46bd d962 08be
000001c0: b90b bd3c cdd9 37be 0003 e23c bb1d 9c3d
000001d0: e2db d33d b6ab a3bd d1f6 ca3c c70a 17bb
000001e0: 691d 7ebd 8375 a2bd 2c94 9e3d 96c8 c0bd
000001f0: 3e9d c4bc 7f11 d43c 21cb 4c3d 5b6a 143d
00000200: ded9 133d 2056 2abc 6e24 10b9 656c cf3c
00000210: 0f5e 36bd eaca 183d 6cbd 1e3d 8437 c3bc
00000220: 96be 9b3c 3a3d c73c 0731 19be 7152 983c
00000230: d0d9 ce3b ad50 34bd 28bf ae3d b7bc b53d
00000240: 1cb5 b6bc 3f32 ed3d 7be1 27bd 7232 ab3d
00000250: 7c2f acbd 56c6 27bd e38b b1b9 3281 0cbc
00000260: 42a4 45bd dd6f 833d e822 223e 24ee 27bd
00000270: 3232 d33a f4cf a1bc 1332 c1bc fcb8 9e3a
00000280: e750 23bd 0106 323e 7db4 063e 3991 49bd
00000290: e244 e4bc f009 cbb9 21ad b6bd 96a8 8bbd
000002a0: f04b ea3d af15 87bd 075f acbd 72ee 293d
000002b0: c5d9 66bd 7496 d4bd 8fd4 9ebd d1f7 02bd
000002c0: db35 9ebd c1b1 303d 2330 96bd 9490 8bbd
000002d0: 1f33 923d 91bc 9ebd c1e8 75bd fa25 ec3d
000002e0: 30d3 11bd cc3b 69bd ac13 f93d 7fcb bdbd
000002f0: e7b6 87bc 7df1 5abd 64fc 92bd a190 16bd
00000300: bfd9 4e3d 9507 b9ba 13e4 4cbc 6579 ef3d
00000310: 033c e3bd 1cfd 2fbd 92f3 22bd 9d62 8e3d
00000320: 1ad5 3a3d adb6 9c3d 7b78 a73d ca72 c63d
00000330: 1022 c0bd 6f8b b73d 0d30 0f3d 565b dabd
00000340: d332 29bc eba9 463d 3221 4dbc 9e2b 8e3d
00000350: 03f2 4e3b 7b23 5ebd cbea f23c 54c5 4a3d
00000360: 845e 1fbc 84df 36bc 2294 883d 4cda 8bbd
00000370: 9f67 b1bd e86d 32be edf1 1a3e a7f3 79bd
00000380: 47a9 a0bc 4e3b cfb9 8168 003d b76d 33be
00000390: bba5 4abd 9b93 223e cacb 38bd 9b92 9ebc
000003a0: a0cd 23bd 51ab 6c3d 6705 443d 58fb 96bd
000003b0: a96e 973d 4169 993d 98fa 263d 213b 0c3d
000003c0: cc49 6abd 312a d23d 226b 043e c29b 1f3d
000003d0: 6f94 00be ec73 6bbc bf9c fe3c fed0 13bd
000003e0: 384c 173c 9a42 4dbd fed2 87bd 170a 9bbd
000003f0: 539d dfbd ccd1 9a3c 92e8 923d 036e 9c3d

decoder.deconv1.bias f4 [64]
-0.021498812 -0.0595391 0.08068913 0.052098162 0.12667884 0.0081906235 0.08744095 -0.071067855
-0.07963282 -0.00740812 0.10765519 -0.078289695 -0.108935066 0.060047977 -0.13247362 0.032057922
0.04300137 0.13690239 0.049815338 0.10096146 0.0057558147 0.011167497 -0.08424797 0.003365033
0.038063895 0.0830255 -0.08722674 0.046552956 -0.0685921 0.034248702 0.0012189713 -0.03540704
-0.0363841 0.031204509 0.06584542 -0.061884694 -0.050080728 0.06885479 0.03976668 -0.0803236
-0.039266337 0.036177248 0.06164195 0.09038138 -0.020063594 -0.12108856 0.08758556 0.035080515
0.074178256 0.029340817 0.16229944 -0.09489973 -0.03154851 -0.07396961 -0.040627234 -0.07372535
0.08961726 0.025344137 -0.05084508 0.011265635 -0.05435433 -0.036984023 -0.08157185 -0.015717955
00000000: 471e b0bc 45df 73bd 5840 a53d e264 553d
00000010: 19b8 013e f731 063c 3e14 b33d 068c 91bd
00000020: 8816 a3bd d1bf f2bb 537a dc3d 5956 a0bd
00000030: 5919 dfbd def4 753d 2aa7 07be 2b4f 033d
00000040: 3422 303d 2430 0c3e 2b0b 4c3d e2c4 ce3d
00000050: 469b bc3b e1f7 363c 338a acbd e387 5c3b
00000060: e3e8 1b3d 4609 aa3d efa3 b2bd 50ae 3e3d
00000070: 047a 8cbd 5e48 0c3d e4c5 9f3a f906 11bd
00000080: 7e07 15bd 99a0 ff3c f7d9 863d ce7a 7dbd
00000090: 7321 4dbd bd03 8d3d 63e2 223d b380 a4bd
000000a0: bdd5 20bd 982e 143d 457c 7c3d df19 b93d
000000b0: 685c a4bc 47fd f7bd 0f60 b33d 96b0 0f3d
000000c0: c5ea 973d 275c f03c d331 263e ca5a c2bd
000000d0: 0339 01bd 617d 97bd be68 26bd 51fd 96bd
000000e0: 4189 b73d 829e cf3c ee42 50bd 7f93 383c
000000f0: a5a2 5ebd 8f7c 17bd 240f a7bd f1c2 80bc

decoder.deconv2.weight f4 [64, 3, 3, 3]
-0.08707837 -0.029896893 0.11489259 -0.14560093 0.008186679 0.080523565 0.16352864 -0.050294645
-0.11126871 0.07028723 -0.23474525 -0.110105835 -0.14526428 0.09796448 0.06174182 -0.05860536
-0.12441709 0.056235164 -0.08768846 0.20072052 -0.15644567 -0.01688511 -0.08010082 -0.06722742
0.19744982 0.076463416 -0.15596835 0.01863605 0.10697748 -0.11556972 0.22519794 -0.029823592
0.18478432 0.23838225 0.13886127 0.35769692 0.24805003 0.14776896 0.06773893 0.084405646
0.072987154 0.13852821 0.18361965 0.009153649 -0.097162515 0.1545345 -0.019570211 -0.036674093
0.07084266 -0.0375594 -0.17245874 0.0053445324 0.14088832 -0.05416717 0.117647 0.16937192
0.24736227 0.13277368 0.06591833 0.18208668 -0.08618816 -0.091022864 -0.024767395 -0.074175455
-0.13905099 0.07687866 0.059564076 -0.013333288 -0.03403021 -0.007980173 0.05724567 -0.016466914
-0.03990946 0.035358205 -0.1430552 0.09980998 -0.12258031 -0.06742715 0.006823726 0.026755724
0.02786403 -0.038581267 0.1998162 -0.08118914 0.0036023108 -0.0699704 0.0522752 -0.048537057
0.13606665 -0.111054994 0.052338284 -0.03803064 -0.023758784 -0.09034858 0.041546017 0.17394693
-0.13303663 0.25886774 0.018181765 0.12558591 -0.012434908 -0.17954426 -0.14421798 0.13172927
-0.07796152 -0.0014275747 -0.20188186 0.14605096 -0.058339294 -0.12597205 0.06834994 0.10740117
-0.16703074 0.21211356 0.1542108 -0.1431301 0.11594994 -0.13501926 0.1238795 -0.18535757
-0.22014427 -0.03416634 0.089478776 -0.19516839 -0.10308725 -0.17162329 -0.11162626 0.11147404
-0.1368745 0.06879362 0.20269524 -0.04481564 -0.048527498 0.21351318 -0.16625643 0.18538214
-0.124413185 0.039266355 -0.0050281556 -0.17040028 -0.035138555 -0.025418973 0.22716719 0.27772713
0.05870098 0.03200836 -0.11644528 -0.19091801 -0.07325147 0.08219999 0.051148817 9.473969e-05
-0.0387703 -0.0019342854 0.10075106 0.029703995 0.21910478 0.24715556 0.123569876 0.11457164
0.17623013 0.0030118183 0.071247645 0.12542406 0.25454408 -0.05350885 0.19637899 0.22554977
-0.033750072 0.20676795 0.04107887 0.11019511 -0.16035196 0.115560494 0.034665257 -0.18979572
0.083360076 -0.05612549 -0.2300229 0.13489223 -0.051032625 0.12150006 0.15665913 -0.15840335
0.035017062 0.089734435 0.067613155 0.15201983 0.06250997 0.14432015 -0.19952983 0.048507705
0.064917564 -0.16208822 0.083642885 0.12458315 -0.106410265 0.15608439 0.01648321 0.25122836
-0.03329188 -0.0016237393 0.051338498 0.20192648 -0.07008833 -0.077567026 0.19384964 -0.09526088
0.035531227 0.16060017 -0.02101846 -0.1748923 0.08630339 0.06686437 -0.053091623 0.07492066
0.19087487 -0.08150658 0.029426994 0.06474111 -0.054592863 -0.19072905 0.1370639 0.33038327
-0.06253681 0.01004669 0.12462183 -0.007400924 -0.04974495 -0.019244842 -0.022911502 -0.21071407
0.06136484 -0.15075862 0.16442217 0.18609604 0.24851325 0.05459317 -0.015827853 -0.0022151915
-0.1511052 -0.22652744 0.06330052 0.18281098 0.1581238 0.2192834 0.27057815 0.21081331
0.21219632 0.23591538 0.05923175 0.268105 0.16142608 -0.13202353 -0.17007668 -0.0632762
00000000: 2556 b2bd 54ea f4bc ce4c eb3d 6918 15be
00000010: 6c21 063c 8ae9 a43d 0d74 273e c201 4ebd
00000020: d9e0 e3bd c0f2 8f3d 0f61 70be 2b7f e1bd
00000030: 29c0 14be 9aa1 c83d fee4 7c3d 2d0c 70bd
00000040: 63ce febd d856 663d 0296 b3bd ae89 4d3e
00000050: 4b33 20be a452 8abc e60b a4bd 88ae 89bd
00000060: 4930 4a3e da98 9c3d 2bb6 1fbe a1aa 983c
00000070: 0217 db3d d1af ecbd 4a9a 663e 9b50 f4bc
00000080: 1a38 3d3e 7a1a 743e a631 0e3e 0d24 b73e
00000090: d400 7e3e bf50 173e b5ba 8a3d dedc ac3d
000000a0: 4a7a 953d 57da 0d3e ca06 3c3e 30f9 153c
000000b0: 24fd c6bd 4b3e 1e3e b551 a0bc 9337 16bd
000000c0: f515 913d e3d7 19bd 0699 30be 3021 af3b
000000d0: 0745 103e 65de 5dbd e9f0 f03d d56f 2d3e
000000e0: 894c 7d3e d3f5 073e 3000 873d ee74 3a3e
000000f0: 6b83 b0bd 326a babd fee4 cabc 4de9 97bd
00000100: 6263 0ebe 8f72 9d3d 76f9 733d dd73 5abc
00000110: 4363 0bbd 46bf 02bc 707a 6a3d 9fe5 86bc
00000120: 1a78 23bd c4d3 103d 107d 12be 2d69 cc3d
00000130: 630b fbbd 3f17 8abd 9099 df3b d22e db3c
00000140: 1b43 e43c 6407 1ebd 9e9c 4c3e 7e46 a6bd
00000150: bf14 6c3b a44c 8fbd 851e 563d cbce 46bd
00000160: 0e55 0b3e cd70 e3bd ab60 563d 04c6 1bbd
00000170: c8a1 c2bc ad08 b9bd 282c 2a3d 251f 323e
00000180: c13a 08be 508a 843e edf1 943c 9899 003e
00000190: c9bb 4bbc 73da 37be e1ad 13be 0ae4 063e
000001a0: 4aaa 9fbd 751d bbba 1eba 4ebe 628e 153e
000001b0: 2ff5 6ebd d1fe 00be 0efb 8b3d 25f5 db3d
000001c0: 1b0a 2bbe 4c34 593e 70e9 1d3e b290 12be
000001d0: 2a77 ed3d 7d42 0abe 89b4 fd3d 60ce 3dbe
000001e0: 806d 61be 01f2 0bbd a640 b73d 39da 47be
000001f0: 681f d3bd 04be 2fbe 4f9c e4bd 804c e43d
00000200: d428 0cbe abe3 8c3d 578f 4f3e 9b90 37bd
00000210: c5c4 46bd 33a3 5a3e 203f 2abe d1d4 3d3e
00000220: 57cc febd c2d5 203d 3ac3 a4bb 697d 2ebe
00000230: 72ed 0fbd 733b d0bc 849e 683e 4032 8e3e
00000240: 7070 703d 331b 033d dd7a eebd 0380 43be
00000250: de04 96bd 7858 a83d 6c81 513d fcae c638
00000260: 9bcd 1ebd d987 fdba 9256 ce3d cb55 f33c
00000270: 015d 603e 5916 7d3e 3412 fd3d 89a4 ea3d
00000280: ac75 343e ed61 453b 49ea 913d 2a6f 003e
00000290: 9a53 823e 192c 5bbd 9317 493e 85f6 663e
000002a0: 843d 0abd faba 533e 5142 283d f9ad e13d
000002b0: 4e33 24be fbaa ec3d 28fd 0d3d cf59 42be
000002c0: b0b8 aa3d d8e3 65bd 208b 6bbe 3021 0a3e
000002d0: 9607 51bd 06d5 f83d 406b 203e 7d34 22be
000002e0: 0d6e 0f3d b0c6 b73d c478 8a3d 16ab 1b3e
000002f0: 3a05 803d a9c8 133e 8c51 4cbe 04b0 463d
00000300: 80f3 843d 74fa 25be f64c ab3d 7325 ff3d
00000310: a0ed d9bd 96d4 1f3e cc07 873c 01a1 803e
00000320: 115d 08bd a6d3 d4ba 5148 523d d1c5 4e3e
00000330: 788a 8fbd 76db 9ebd 8580 463e 2318 c3bd
00000340: 3189 113d 5f74 243e e82e acbc f816 33be
00000350: d5bf b03d 30f0 883d 9a76 59bd 0170 993d
00000360: b474 433e ecec a6bd e110 f13c fd96 843d
00000370: c49c 5fbd 7a4e 43be 7b5a 0c3e ff27 a93e
00000380: 4d13 80bd df9a 243c bb39 ff3d 7383 f2bb
00000390: 5cc1 4bbd 5ca7 9dbc e7b0 bbbc 6ec5 57be
000003a0: b359 7b3d 7860 1abe 495e 283e f68f 3e3e
000003b0: 427a 7e3e 169d 5f3d 6aa9 81bc bf2c 11bb
000003c0: 52bb 1abe cff6 67be b4a3 813d cd32 3b3e
000003d0: 35eb 213e d48b 603e 3889 8a3e 72df 573e
000003e0: fe49 593e cd93 713e fe9c 723d 0f45 893e
000003f0: e14c 253e 2d31 07be 9528 2ebe f496 81bd

decoder.deconv2.bias f4 [3]
0.0079698125 0.00042850018 -0.19783741
00000000: d193 023c 52a8 e039 e495 4abe

decoder.bn.weight f4 [64]
0.90928644 1.0065637 0.90166485 0.9581513 0.95406985 0.9789703 0.95774436 0.9313668
1.0413096 1.0998794 0.9149882 0.8336078 0.98124284 0.98230964 1.1123911 0.9553572
1.0356514 0.93639326 0.9183836 0.96891105 0.9123899 1.037468 0.92398477 1.1109678
1.0569842 1.269829 0.8249818 0.84652835 0.9249887 0.9969717 1.139853 0.9170887
0.9015486 1.0321932 1.442217 0.9892237 0.99028796 0.9263757 1.014378 0.90327376
1.0669577 0.9673489 1.052565 1.0054448 0.89088404 0.8680302 1.0403409 1.0723101
1.0212406 1.0260228 0.9445147 0.9749786 0.84340525 0.96689624 0.9548362 0.8798658
0.935622 0.9000138 0.9446694 1.0472897 0.9334179 0.9973105 0.8257058 0.93846023
00000000: ffc6 683f 14d7 803f 82d3 663f 6749 753f
00000010: ec3d 743f cc9d 7a3f bc2e 753f 0e6e 6e3f
00000020: a249 853f d9c8 8c3f ab3c 6a3f 5267 553f
00000030: bb32 7b3f a578 7b3f d562 8e3f 4a92 743f
00000040: 3a90 843f 78b7 6f3f 301b 6b3f 8e0a 783f
00000050: 6292 693f c0cb 843f 448a 6c3f 3134 8e3f
00000060: 424b 873f c289 a23f 0232 533f 15b6 583f
00000070: 0fcc 6c3f 8a39 7f3f b4e6 913f 53c6 6a3f
00000080: e4cb 663f e81e 843f 919a b83f c43d 7d3f
00000090: 8383 7d3f f526 6d3f 23d7 813f f33c 673f
000000a0: 1292 883f 2da4 773f 73ba 863f 6ab2 803f
000000b0: fa10 643f 3a37 5e3f e429 853f 7541 893f
000000c0: 03b8 823f b754 833f b7cb 713f 3398 793f
000000d0: 68e9 573f 8386 773f 2570 743f e33e 613f
000000e0: ec84 6f3f 4e67 663f dbd5 713f 970d 863f
000000f0: 7af4 6e3f be4f 7f3f 7561 533f ee3e 703f

decoder.bn.bias f4 [64]
0.11015919 -0.13874134 0.11096358 0.092537396 0.12589319 -0.1900591 -0.18502222 -0.09454129
-0.13605894 -0.029183026 0.12925228 0.13389315 -0.23344553 0.2050511 -0.16761793 -0.05254763
0.17994766 -0.12707527 0.12920147 0.031255346 0.018191878 -0.15545462 0.03463827 -0.09377204
-0.07048056 9.5274394e-05 -0.10810427 -0.047767036 -0.18436085 0.103753254 0.17388432 -0.16510528
-0.09132192 -0.06349529 -0.05928993 -0.13349997 -0.07636327 0.056714267 0.12941271 0.027988974
0.06996174 0.1227498 -0.09637519 0.10064864 0.045286655 -0.15617183 -0.04407566 0.081383854
0.11162992 0.036716245 0.03485856 -0.1543323 -0.13912375 -0.049682356 0.08498819 -0.071503825
0.2310562 0.042939994 0.11642823 0.10546632 -0.087835014 -0.17437279 -0.16060685 0.10683213
00000000: 249b e13d 3612 0ebe e040 e33d 3f84 bd3d
00000010: 25ea 003e da9e 42be 7776 3dbe dd9e c1bd
00000020: 0953 0bbe 3e11 efbc b65a 043e 491b 093e
00000030: 580c 6fbe eaf8 513e 09a4 2bbe 2f3c 57bd
00000040: 3344 383e 0520 02be 644d 043e 9b05 003d
00000050: 2207 953c 7f2f 1fbe dce0 0d3d 8e0b c0bd
00000060: 1d58 90bd 0dce c738 c665 ddbd 5ea7 43bd
00000070: 17c9 3cbe 967c d43d bb0e 323e 5c11 29be
00000080: fd06 bbbd d209 82bd ffd9 72bd 37b4 08be
00000090: 5964 9cbd 384d 683d c484 043e 2249 e53c
000000a0: 1a48 8f3d 3f64 fb3d 5b60 c5bd e020 ce3d
000000b0: 807e 393d 82eb 1fbe ae88 34bd 94ac a63d
000000c0: 3a9e e43d c663 163d d9c7 0e3d 4909 1ebe
000000d0: 7576 0ebe ba7f 4bbd 4a0e ae3d 9970 92bd
000000e0: ff99 6c3e d9e1 2f3d ed71 ee3d bafe d73d
000000f0: d8e2 b3bd c88e 32be 1f76 24be ceca da3d

decoder.bn.running_mean f4 [64]
8.306097 0.5861423 5.1983986 5.3489976 9.415497 9.6367035 0.65264046 0.07433127
0.59305876 0.7259697 8.982762 0.2184607 0.013402503 0.3809817 0.00021479378 0.79276776
8.050708 9.7391205 6.3874936 7.969243 9.095002 4.96678 0.208468 0.21085386
9.562954 7.6911006 0.55640256 1.3043237 0.39374104 8.535216 0.818385 0.024612393
0.045795918 0.24494018 1.5110533 0.1283418 3.3752134 7.653053 9.515715 0.1417207
0.44086432 7.623782 1.0450143 8.1668 9.08537 0.3683972 0.38499606 6.2833757
10.104856 9.9232025 9.915761 0.00076182256 0.006692846 4.6626763 0.9089021 4.1007147
2.5438821 9.185899 0.67624944 6.097305 0.06753775 6.8810167 0.005817478 6.1999793
00000000: c6e5 0441 6c0d 163f 4859 a640 fd2a ab40
00000010: e0a5 1641 f02f 1a41 7213 273f fe3a 983d
00000020: b3d2 173f 26d9 393f 65b9 0f41 29b4 5f3e
00000030: 2c96 5b3c 0910 c33e 443a 6139 d4f2 4a3f
00000040: b3cf 0041 70d3 1b41 5966 cc40 0a04 ff40
00000050: 2185 1141 ddef 9e40 a378 553e 13ea 573e
00000060: dc01 1941 7f1d f640 6670 0e3f 14f4 a63f
00000070: 6d98 c93e 3f90 0841 ae81 513f ee9f c93c
00000080: 8094 3b3d 99d1 7a3e 326a c13f 086c 033e
00000090: 7f03 5840 cfe5 f440 5e40 1841 3b1f 113e
000000a0: f8b8 e13e 06f6 f340 07c3 853f 36ab 0241
000000b0: ad5d 1141 8f9e bc3e 341e c53e 6a11 c940
000000c0: 7dad 2141 70c5 1e41 f5a6 1e41 0cb5 473a
000000d0: a94f db3b a534 9540 cfad 683f 0e39 8340
000000e0: f7ce 2240 71f9 1241 af1e 2d3f 1f1d c340
000000f0: 3b51 8a3d 4a31 dc40 8ba0 be3b 3b66 c640

decoder.bn.running_var f4 [64]
19.843893 2.5715392 58.267796 18.328787 15.805943 28.153986 5.287674 0.15782328
3.9738681 3.4659812 19.258772 1.0211812 0.03130341 2.0892951 0.0011021057 4.745556
9.023252 30.681408 14.381392 19.187792 21.066847 10.821262 0.6646541 0.94294524
27.461346 11.775253 2.7282367 6.7936454 1.9938114 9.729105 4.569348 0.10333726
0.08423237 1.0746244 10.201062 1.0090257 5.8992596 18.269474 23.442871 0.45501864
1.964167 16.97547 6.793785 20.546537 22.399939 2.0638766 1.3183609 12.455018
28.42319 26.761332 11.833147 0.003789478 0.008848674 5.7968764 4.655986 12.076875
28.004347 18.70001 3.4614449 7.944319 0.18312064 8.874136 0.014418136 12.817758
00000000: 4bc0 9e41 1994 2440 3912 6942 5ba1 9241
00000010: 24e5 7c41 5d3b e141 a034 a940 6d9c 213e
00000020: db53 7e40 a3d2 5d40 f711 9a41 11b6 823f
00000030: 0138 003d 03b7 0540 8874 903a 98db 9740
00000040: 3d5f 1041 8673 f541 2e1a 6641 9980 9941
00000050: e788 a841 e423 2d41 c526 2a3f dc64 713f
00000060: d6b0 db41 7067 3c41 6e9b 2e40 8b65 d940
00000070: 3635 ff3f 6aaa 1b41 1938 9240 7ca2 d33d
00000080: 0582 ac3d 4b8d 893f 8d37 2341 c127 813f
00000090: bcc6 bc40 e227 9241 008b bb41 34f8 e83e
000000a0: d369 fb3f c3cd 8741 b066 d940 4f5f a441
000000b0: 1333 b341 8e16 0440 0dc0 a83f c147 4741
000000c0: b162 e341 3517 d641 9254 3d41 e458 783b
000000d0: 07fa 103c 0380 b940 d6fd 9440 e13a 4141
000000e0: e708 e041 9f99 9541 5088 5d40 dc37 fe40
000000f0: fa83 3b3e 76fc 0d41 0c3a 6c3c 8915 4d41
